{
	"format": "layers-model",
	"generatedBy": "keras v3.8.0",
	"convertedBy": "TensorFlow.js Converter v4.22.0",
	"modelTopology": {
		"keras_version": "3.8.0",
		"backend": "tensorflow",
		"model_config": {
			"class_name": "Functional",
			"config": {
				"name": "functional",
				"trainable": true,
				"layers": [
					{
						"class_name": "InputLayer",
						"config": {
							"batch_shape": [null, 50, 33, 8],
							"dtype": "float32",
							"sparse": false,
							"name": "input_layer"
						},
						"name": "input_layer",
						"inbound_nodes": []
					},
					{
						"class_name": "BatchNormalization",
						"config": {
							"name": "batch_normalization",
							"trainable": true,
							"dtype": {
								"module": "keras",
								"class_name": "DTypePolicy",
								"config": { "name": "float32" },
								"registered_name": null
							},
							"axis": -1,
							"momentum": 0.99,
							"epsilon": 0.001,
							"center": true,
							"scale": true,
							"beta_initializer": {
								"module": "keras.initializers",
								"class_name": "Zeros",
								"config": {},
								"registered_name": null
							},
							"gamma_initializer": {
								"module": "keras.initializers",
								"class_name": "Ones",
								"config": {},
								"registered_name": null
							},
							"moving_mean_initializer": {
								"module": "keras.initializers",
								"class_name": "Zeros",
								"config": {},
								"registered_name": null
							},
							"moving_variance_initializer": {
								"module": "keras.initializers",
								"class_name": "Ones",
								"config": {},
								"registered_name": null
							},
							"beta_regularizer": null,
							"gamma_regularizer": null,
							"beta_constraint": null,
							"gamma_constraint": null,
							"synchronized": false
						},
						"name": "batch_normalization",
						"inbound_nodes": [
							{
								"args": [
									{
										"class_name": "__keras_tensor__",
										"config": {
											"shape": [null, 50, 33, 8],
											"dtype": "float32",
											"keras_history": [
												"input_layer",
												0,
												0
											]
										}
									}
								],
								"kwargs": { "mask": null }
							}
						]
					},
					{
						"class_name": "GraphConv",
						"config": {
							"out_channels": 64,
							"trainable": true,
							"dtype": {
								"module": "keras",
								"class_name": "DTypePolicy",
								"config": { "name": "float32" },
								"registered_name": null
							}
						},
						"name": "graph_conv",
						"inbound_nodes": [
							{
								"args": [
									{
										"class_name": "__keras_tensor__",
										"config": {
											"shape": [null, 50, 33, 8],
											"dtype": "float32",
											"keras_history": [
												"batch_normalization",
												0,
												0
											]
										}
									}
								],
								"kwargs": {}
							}
						]
					},
					{
						"class_name": "BatchNormalization",
						"config": {
							"name": "batch_normalization_1",
							"trainable": true,
							"dtype": {
								"module": "keras",
								"class_name": "DTypePolicy",
								"config": { "name": "float32" },
								"registered_name": null
							},
							"axis": -1,
							"momentum": 0.99,
							"epsilon": 0.001,
							"center": true,
							"scale": true,
							"beta_initializer": {
								"module": "keras.initializers",
								"class_name": "Zeros",
								"config": {},
								"registered_name": null
							},
							"gamma_initializer": {
								"module": "keras.initializers",
								"class_name": "Ones",
								"config": {},
								"registered_name": null
							},
							"moving_mean_initializer": {
								"module": "keras.initializers",
								"class_name": "Zeros",
								"config": {},
								"registered_name": null
							},
							"moving_variance_initializer": {
								"module": "keras.initializers",
								"class_name": "Ones",
								"config": {},
								"registered_name": null
							},
							"beta_regularizer": null,
							"gamma_regularizer": null,
							"beta_constraint": null,
							"gamma_constraint": null,
							"synchronized": false
						},
						"name": "batch_normalization_1",
						"inbound_nodes": [
							{
								"args": [
									{
										"class_name": "__keras_tensor__",
										"config": {
											"shape": [null, 50, 33, 64],
											"dtype": "float32",
											"keras_history": [
												"graph_conv",
												0,
												0
											]
										}
									}
								],
								"kwargs": { "mask": null }
							}
						]
					},
					{
						"class_name": "Activation",
						"config": {
							"name": "activation",
							"trainable": true,
							"dtype": {
								"module": "keras",
								"class_name": "DTypePolicy",
								"config": { "name": "float32" },
								"registered_name": null
							},
							"activation": "relu"
						},
						"name": "activation",
						"inbound_nodes": [
							{
								"args": [
									{
										"class_name": "__keras_tensor__",
										"config": {
											"shape": [null, 50, 33, 64],
											"dtype": "float32",
											"keras_history": [
												"batch_normalization_1",
												0,
												0
											]
										}
									}
								],
								"kwargs": {}
							}
						]
					},
					{
						"class_name": "DepthwiseConv2D",
						"config": {
							"name": "depthwise_conv2d",
							"trainable": true,
							"dtype": {
								"module": "keras",
								"class_name": "DTypePolicy",
								"config": { "name": "float32" },
								"registered_name": null
							},
							"depth_multiplier": 1,
							"kernel_size": [9, 1],
							"strides": [1, 1],
							"padding": "same",
							"data_format": "channels_last",
							"dilation_rate": [1, 1],
							"activation": "linear",
							"use_bias": true,
							"depthwise_initializer": {
								"module": "keras.initializers",
								"class_name": "GlorotUniform",
								"config": { "seed": null },
								"registered_name": null
							},
							"bias_initializer": {
								"module": "keras.initializers",
								"class_name": "Zeros",
								"config": {},
								"registered_name": null
							},
							"depthwise_regularizer": {
								"module": "keras.regularizers",
								"class_name": "L2",
								"config": { "l2": 0.0001 },
								"registered_name": null
							},
							"bias_regularizer": null,
							"activity_regularizer": null,
							"depthwise_constraint": null,
							"bias_constraint": null
						},
						"name": "depthwise_conv2d",
						"inbound_nodes": [
							{
								"args": [
									{
										"class_name": "__keras_tensor__",
										"config": {
											"shape": [null, 50, 33, 64],
											"dtype": "float32",
											"keras_history": [
												"activation",
												0,
												0
											]
										}
									}
								],
								"kwargs": {}
							}
						]
					},
					{
						"class_name": "Conv2D",
						"config": {
							"name": "conv2d_1",
							"trainable": true,
							"dtype": {
								"module": "keras",
								"class_name": "DTypePolicy",
								"config": { "name": "float32" },
								"registered_name": null
							},
							"filters": 64,
							"kernel_size": [1, 1],
							"strides": [1, 1],
							"padding": "same",
							"data_format": "channels_last",
							"dilation_rate": [1, 1],
							"groups": 1,
							"activation": "linear",
							"use_bias": true,
							"kernel_initializer": {
								"module": "keras.initializers",
								"class_name": "GlorotUniform",
								"config": { "seed": null },
								"registered_name": null
							},
							"bias_initializer": {
								"module": "keras.initializers",
								"class_name": "Zeros",
								"config": {},
								"registered_name": null
							},
							"kernel_regularizer": {
								"module": "keras.regularizers",
								"class_name": "L2",
								"config": { "l2": 0.0001 },
								"registered_name": null
							},
							"bias_regularizer": null,
							"activity_regularizer": null,
							"kernel_constraint": null,
							"bias_constraint": null
						},
						"name": "conv2d_1",
						"inbound_nodes": [
							{
								"args": [
									{
										"class_name": "__keras_tensor__",
										"config": {
											"shape": [null, 50, 33, 64],
											"dtype": "float32",
											"keras_history": [
												"depthwise_conv2d",
												0,
												0
											]
										}
									}
								],
								"kwargs": {}
							}
						]
					},
					{
						"class_name": "Conv2D",
						"config": {
							"name": "conv2d_2",
							"trainable": true,
							"dtype": {
								"module": "keras",
								"class_name": "DTypePolicy",
								"config": { "name": "float32" },
								"registered_name": null
							},
							"filters": 64,
							"kernel_size": [1, 1],
							"strides": [1, 1],
							"padding": "same",
							"data_format": "channels_last",
							"dilation_rate": [1, 1],
							"groups": 1,
							"activation": "linear",
							"use_bias": true,
							"kernel_initializer": {
								"module": "keras.initializers",
								"class_name": "GlorotUniform",
								"config": { "seed": null },
								"registered_name": null
							},
							"bias_initializer": {
								"module": "keras.initializers",
								"class_name": "Zeros",
								"config": {},
								"registered_name": null
							},
							"kernel_regularizer": {
								"module": "keras.regularizers",
								"class_name": "L2",
								"config": { "l2": 0.0001 },
								"registered_name": null
							},
							"bias_regularizer": null,
							"activity_regularizer": null,
							"kernel_constraint": null,
							"bias_constraint": null
						},
						"name": "conv2d_2",
						"inbound_nodes": [
							{
								"args": [
									{
										"class_name": "__keras_tensor__",
										"config": {
											"shape": [null, 50, 33, 8],
											"dtype": "float32",
											"keras_history": [
												"batch_normalization",
												0,
												0
											]
										}
									}
								],
								"kwargs": {}
							}
						]
					},
					{
						"class_name": "BatchNormalization",
						"config": {
							"name": "batch_normalization_2",
							"trainable": true,
							"dtype": {
								"module": "keras",
								"class_name": "DTypePolicy",
								"config": { "name": "float32" },
								"registered_name": null
							},
							"axis": -1,
							"momentum": 0.99,
							"epsilon": 0.001,
							"center": true,
							"scale": true,
							"beta_initializer": {
								"module": "keras.initializers",
								"class_name": "Zeros",
								"config": {},
								"registered_name": null
							},
							"gamma_initializer": {
								"module": "keras.initializers",
								"class_name": "Ones",
								"config": {},
								"registered_name": null
							},
							"moving_mean_initializer": {
								"module": "keras.initializers",
								"class_name": "Zeros",
								"config": {},
								"registered_name": null
							},
							"moving_variance_initializer": {
								"module": "keras.initializers",
								"class_name": "Ones",
								"config": {},
								"registered_name": null
							},
							"beta_regularizer": null,
							"gamma_regularizer": null,
							"beta_constraint": null,
							"gamma_constraint": null,
							"synchronized": false
						},
						"name": "batch_normalization_2",
						"inbound_nodes": [
							{
								"args": [
									{
										"class_name": "__keras_tensor__",
										"config": {
											"shape": [null, 50, 33, 64],
											"dtype": "float32",
											"keras_history": ["conv2d_1", 0, 0]
										}
									}
								],
								"kwargs": { "mask": null }
							}
						]
					},
					{
						"class_name": "BatchNormalization",
						"config": {
							"name": "batch_normalization_3",
							"trainable": true,
							"dtype": {
								"module": "keras",
								"class_name": "DTypePolicy",
								"config": { "name": "float32" },
								"registered_name": null
							},
							"axis": -1,
							"momentum": 0.99,
							"epsilon": 0.001,
							"center": true,
							"scale": true,
							"beta_initializer": {
								"module": "keras.initializers",
								"class_name": "Zeros",
								"config": {},
								"registered_name": null
							},
							"gamma_initializer": {
								"module": "keras.initializers",
								"class_name": "Ones",
								"config": {},
								"registered_name": null
							},
							"moving_mean_initializer": {
								"module": "keras.initializers",
								"class_name": "Zeros",
								"config": {},
								"registered_name": null
							},
							"moving_variance_initializer": {
								"module": "keras.initializers",
								"class_name": "Ones",
								"config": {},
								"registered_name": null
							},
							"beta_regularizer": null,
							"gamma_regularizer": null,
							"beta_constraint": null,
							"gamma_constraint": null,
							"synchronized": false
						},
						"name": "batch_normalization_3",
						"inbound_nodes": [
							{
								"args": [
									{
										"class_name": "__keras_tensor__",
										"config": {
											"shape": [null, 50, 33, 64],
											"dtype": "float32",
											"keras_history": ["conv2d_2", 0, 0]
										}
									}
								],
								"kwargs": { "mask": null }
							}
						]
					},
					{
						"class_name": "Add",
						"config": {
							"name": "add",
							"trainable": true,
							"dtype": {
								"module": "keras",
								"class_name": "DTypePolicy",
								"config": { "name": "float32" },
								"registered_name": null
							}
						},
						"name": "add",
						"inbound_nodes": [
							{
								"args": [
									[
										{
											"class_name": "__keras_tensor__",
											"config": {
												"shape": [null, 50, 33, 64],
												"dtype": "float32",
												"keras_history": [
													"batch_normalization_2",
													0,
													0
												]
											}
										},
										{
											"class_name": "__keras_tensor__",
											"config": {
												"shape": [null, 50, 33, 64],
												"dtype": "float32",
												"keras_history": [
													"batch_normalization_3",
													0,
													0
												]
											}
										}
									]
								],
								"kwargs": {}
							}
						]
					},
					{
						"class_name": "Activation",
						"config": {
							"name": "activation_1",
							"trainable": true,
							"dtype": {
								"module": "keras",
								"class_name": "DTypePolicy",
								"config": { "name": "float32" },
								"registered_name": null
							},
							"activation": "relu"
						},
						"name": "activation_1",
						"inbound_nodes": [
							{
								"args": [
									{
										"class_name": "__keras_tensor__",
										"config": {
											"shape": [null, 50, 33, 64],
											"dtype": "float32",
											"keras_history": ["add", 0, 0]
										}
									}
								],
								"kwargs": {}
							}
						]
					},
					{
						"class_name": "Dropout",
						"config": {
							"name": "dropout",
							"trainable": true,
							"dtype": {
								"module": "keras",
								"class_name": "DTypePolicy",
								"config": { "name": "float32" },
								"registered_name": null
							},
							"rate": 0.5,
							"seed": null,
							"noise_shape": null
						},
						"name": "dropout",
						"inbound_nodes": [
							{
								"args": [
									{
										"class_name": "__keras_tensor__",
										"config": {
											"shape": [null, 50, 33, 64],
											"dtype": "float32",
											"keras_history": [
												"activation_1",
												0,
												0
											]
										}
									}
								],
								"kwargs": { "training": false }
							}
						]
					},
					{
						"class_name": "GraphConv",
						"config": {
							"out_channels": 64,
							"trainable": true,
							"dtype": {
								"module": "keras",
								"class_name": "DTypePolicy",
								"config": { "name": "float32" },
								"registered_name": null
							}
						},
						"name": "graph_conv_1",
						"inbound_nodes": [
							{
								"args": [
									{
										"class_name": "__keras_tensor__",
										"config": {
											"shape": [null, 50, 33, 64],
											"dtype": "float32",
											"keras_history": ["dropout", 0, 0]
										}
									}
								],
								"kwargs": {}
							}
						]
					},
					{
						"class_name": "BatchNormalization",
						"config": {
							"name": "batch_normalization_4",
							"trainable": true,
							"dtype": {
								"module": "keras",
								"class_name": "DTypePolicy",
								"config": { "name": "float32" },
								"registered_name": null
							},
							"axis": -1,
							"momentum": 0.99,
							"epsilon": 0.001,
							"center": true,
							"scale": true,
							"beta_initializer": {
								"module": "keras.initializers",
								"class_name": "Zeros",
								"config": {},
								"registered_name": null
							},
							"gamma_initializer": {
								"module": "keras.initializers",
								"class_name": "Ones",
								"config": {},
								"registered_name": null
							},
							"moving_mean_initializer": {
								"module": "keras.initializers",
								"class_name": "Zeros",
								"config": {},
								"registered_name": null
							},
							"moving_variance_initializer": {
								"module": "keras.initializers",
								"class_name": "Ones",
								"config": {},
								"registered_name": null
							},
							"beta_regularizer": null,
							"gamma_regularizer": null,
							"beta_constraint": null,
							"gamma_constraint": null,
							"synchronized": false
						},
						"name": "batch_normalization_4",
						"inbound_nodes": [
							{
								"args": [
									{
										"class_name": "__keras_tensor__",
										"config": {
											"shape": [null, 50, 33, 64],
											"dtype": "float32",
											"keras_history": [
												"graph_conv_1",
												0,
												0
											]
										}
									}
								],
								"kwargs": { "mask": null }
							}
						]
					},
					{
						"class_name": "Activation",
						"config": {
							"name": "activation_2",
							"trainable": true,
							"dtype": {
								"module": "keras",
								"class_name": "DTypePolicy",
								"config": { "name": "float32" },
								"registered_name": null
							},
							"activation": "relu"
						},
						"name": "activation_2",
						"inbound_nodes": [
							{
								"args": [
									{
										"class_name": "__keras_tensor__",
										"config": {
											"shape": [null, 50, 33, 64],
											"dtype": "float32",
											"keras_history": [
												"batch_normalization_4",
												0,
												0
											]
										}
									}
								],
								"kwargs": {}
							}
						]
					},
					{
						"class_name": "DepthwiseConv2D",
						"config": {
							"name": "depthwise_conv2d_1",
							"trainable": true,
							"dtype": {
								"module": "keras",
								"class_name": "DTypePolicy",
								"config": { "name": "float32" },
								"registered_name": null
							},
							"depth_multiplier": 1,
							"kernel_size": [9, 1],
							"strides": [1, 1],
							"padding": "same",
							"data_format": "channels_last",
							"dilation_rate": [1, 1],
							"activation": "linear",
							"use_bias": true,
							"depthwise_initializer": {
								"module": "keras.initializers",
								"class_name": "GlorotUniform",
								"config": { "seed": null },
								"registered_name": null
							},
							"bias_initializer": {
								"module": "keras.initializers",
								"class_name": "Zeros",
								"config": {},
								"registered_name": null
							},
							"depthwise_regularizer": {
								"module": "keras.regularizers",
								"class_name": "L2",
								"config": { "l2": 0.0001 },
								"registered_name": null
							},
							"bias_regularizer": null,
							"activity_regularizer": null,
							"depthwise_constraint": null,
							"bias_constraint": null
						},
						"name": "depthwise_conv2d_1",
						"inbound_nodes": [
							{
								"args": [
									{
										"class_name": "__keras_tensor__",
										"config": {
											"shape": [null, 50, 33, 64],
											"dtype": "float32",
											"keras_history": [
												"activation_2",
												0,
												0
											]
										}
									}
								],
								"kwargs": {}
							}
						]
					},
					{
						"class_name": "Conv2D",
						"config": {
							"name": "conv2d_4",
							"trainable": true,
							"dtype": {
								"module": "keras",
								"class_name": "DTypePolicy",
								"config": { "name": "float32" },
								"registered_name": null
							},
							"filters": 64,
							"kernel_size": [1, 1],
							"strides": [1, 1],
							"padding": "same",
							"data_format": "channels_last",
							"dilation_rate": [1, 1],
							"groups": 1,
							"activation": "linear",
							"use_bias": true,
							"kernel_initializer": {
								"module": "keras.initializers",
								"class_name": "GlorotUniform",
								"config": { "seed": null },
								"registered_name": null
							},
							"bias_initializer": {
								"module": "keras.initializers",
								"class_name": "Zeros",
								"config": {},
								"registered_name": null
							},
							"kernel_regularizer": {
								"module": "keras.regularizers",
								"class_name": "L2",
								"config": { "l2": 0.0001 },
								"registered_name": null
							},
							"bias_regularizer": null,
							"activity_regularizer": null,
							"kernel_constraint": null,
							"bias_constraint": null
						},
						"name": "conv2d_4",
						"inbound_nodes": [
							{
								"args": [
									{
										"class_name": "__keras_tensor__",
										"config": {
											"shape": [null, 50, 33, 64],
											"dtype": "float32",
											"keras_history": [
												"depthwise_conv2d_1",
												0,
												0
											]
										}
									}
								],
								"kwargs": {}
							}
						]
					},
					{
						"class_name": "BatchNormalization",
						"config": {
							"name": "batch_normalization_5",
							"trainable": true,
							"dtype": {
								"module": "keras",
								"class_name": "DTypePolicy",
								"config": { "name": "float32" },
								"registered_name": null
							},
							"axis": -1,
							"momentum": 0.99,
							"epsilon": 0.001,
							"center": true,
							"scale": true,
							"beta_initializer": {
								"module": "keras.initializers",
								"class_name": "Zeros",
								"config": {},
								"registered_name": null
							},
							"gamma_initializer": {
								"module": "keras.initializers",
								"class_name": "Ones",
								"config": {},
								"registered_name": null
							},
							"moving_mean_initializer": {
								"module": "keras.initializers",
								"class_name": "Zeros",
								"config": {},
								"registered_name": null
							},
							"moving_variance_initializer": {
								"module": "keras.initializers",
								"class_name": "Ones",
								"config": {},
								"registered_name": null
							},
							"beta_regularizer": null,
							"gamma_regularizer": null,
							"beta_constraint": null,
							"gamma_constraint": null,
							"synchronized": false
						},
						"name": "batch_normalization_5",
						"inbound_nodes": [
							{
								"args": [
									{
										"class_name": "__keras_tensor__",
										"config": {
											"shape": [null, 50, 33, 64],
											"dtype": "float32",
											"keras_history": ["conv2d_4", 0, 0]
										}
									}
								],
								"kwargs": { "mask": null }
							}
						]
					},
					{
						"class_name": "Add",
						"config": {
							"name": "add_1",
							"trainable": true,
							"dtype": {
								"module": "keras",
								"class_name": "DTypePolicy",
								"config": { "name": "float32" },
								"registered_name": null
							}
						},
						"name": "add_1",
						"inbound_nodes": [
							{
								"args": [
									[
										{
											"class_name": "__keras_tensor__",
											"config": {
												"shape": [null, 50, 33, 64],
												"dtype": "float32",
												"keras_history": [
													"batch_normalization_5",
													0,
													0
												]
											}
										},
										{
											"class_name": "__keras_tensor__",
											"config": {
												"shape": [null, 50, 33, 64],
												"dtype": "float32",
												"keras_history": [
													"dropout",
													0,
													0
												]
											}
										}
									]
								],
								"kwargs": {}
							}
						]
					},
					{
						"class_name": "Activation",
						"config": {
							"name": "activation_3",
							"trainable": true,
							"dtype": {
								"module": "keras",
								"class_name": "DTypePolicy",
								"config": { "name": "float32" },
								"registered_name": null
							},
							"activation": "relu"
						},
						"name": "activation_3",
						"inbound_nodes": [
							{
								"args": [
									{
										"class_name": "__keras_tensor__",
										"config": {
											"shape": [null, 50, 33, 64],
											"dtype": "float32",
											"keras_history": ["add_1", 0, 0]
										}
									}
								],
								"kwargs": {}
							}
						]
					},
					{
						"class_name": "Dropout",
						"config": {
							"name": "dropout_1",
							"trainable": true,
							"dtype": {
								"module": "keras",
								"class_name": "DTypePolicy",
								"config": { "name": "float32" },
								"registered_name": null
							},
							"rate": 0.5,
							"seed": null,
							"noise_shape": null
						},
						"name": "dropout_1",
						"inbound_nodes": [
							{
								"args": [
									{
										"class_name": "__keras_tensor__",
										"config": {
											"shape": [null, 50, 33, 64],
											"dtype": "float32",
											"keras_history": [
												"activation_3",
												0,
												0
											]
										}
									}
								],
								"kwargs": { "training": false }
							}
						]
					},
					{
						"class_name": "GraphConv",
						"config": {
							"out_channels": 64,
							"trainable": true,
							"dtype": {
								"module": "keras",
								"class_name": "DTypePolicy",
								"config": { "name": "float32" },
								"registered_name": null
							}
						},
						"name": "graph_conv_2",
						"inbound_nodes": [
							{
								"args": [
									{
										"class_name": "__keras_tensor__",
										"config": {
											"shape": [null, 50, 33, 64],
											"dtype": "float32",
											"keras_history": ["dropout_1", 0, 0]
										}
									}
								],
								"kwargs": {}
							}
						]
					},
					{
						"class_name": "BatchNormalization",
						"config": {
							"name": "batch_normalization_6",
							"trainable": true,
							"dtype": {
								"module": "keras",
								"class_name": "DTypePolicy",
								"config": { "name": "float32" },
								"registered_name": null
							},
							"axis": -1,
							"momentum": 0.99,
							"epsilon": 0.001,
							"center": true,
							"scale": true,
							"beta_initializer": {
								"module": "keras.initializers",
								"class_name": "Zeros",
								"config": {},
								"registered_name": null
							},
							"gamma_initializer": {
								"module": "keras.initializers",
								"class_name": "Ones",
								"config": {},
								"registered_name": null
							},
							"moving_mean_initializer": {
								"module": "keras.initializers",
								"class_name": "Zeros",
								"config": {},
								"registered_name": null
							},
							"moving_variance_initializer": {
								"module": "keras.initializers",
								"class_name": "Ones",
								"config": {},
								"registered_name": null
							},
							"beta_regularizer": null,
							"gamma_regularizer": null,
							"beta_constraint": null,
							"gamma_constraint": null,
							"synchronized": false
						},
						"name": "batch_normalization_6",
						"inbound_nodes": [
							{
								"args": [
									{
										"class_name": "__keras_tensor__",
										"config": {
											"shape": [null, 50, 33, 64],
											"dtype": "float32",
											"keras_history": [
												"graph_conv_2",
												0,
												0
											]
										}
									}
								],
								"kwargs": { "mask": null }
							}
						]
					},
					{
						"class_name": "Activation",
						"config": {
							"name": "activation_4",
							"trainable": true,
							"dtype": {
								"module": "keras",
								"class_name": "DTypePolicy",
								"config": { "name": "float32" },
								"registered_name": null
							},
							"activation": "relu"
						},
						"name": "activation_4",
						"inbound_nodes": [
							{
								"args": [
									{
										"class_name": "__keras_tensor__",
										"config": {
											"shape": [null, 50, 33, 64],
											"dtype": "float32",
											"keras_history": [
												"batch_normalization_6",
												0,
												0
											]
										}
									}
								],
								"kwargs": {}
							}
						]
					},
					{
						"class_name": "DepthwiseConv2D",
						"config": {
							"name": "depthwise_conv2d_2",
							"trainable": true,
							"dtype": {
								"module": "keras",
								"class_name": "DTypePolicy",
								"config": { "name": "float32" },
								"registered_name": null
							},
							"depth_multiplier": 1,
							"kernel_size": [9, 1],
							"strides": [1, 1],
							"padding": "same",
							"data_format": "channels_last",
							"dilation_rate": [1, 1],
							"activation": "linear",
							"use_bias": true,
							"depthwise_initializer": {
								"module": "keras.initializers",
								"class_name": "GlorotUniform",
								"config": { "seed": null },
								"registered_name": null
							},
							"bias_initializer": {
								"module": "keras.initializers",
								"class_name": "Zeros",
								"config": {},
								"registered_name": null
							},
							"depthwise_regularizer": {
								"module": "keras.regularizers",
								"class_name": "L2",
								"config": { "l2": 0.0001 },
								"registered_name": null
							},
							"bias_regularizer": null,
							"activity_regularizer": null,
							"depthwise_constraint": null,
							"bias_constraint": null
						},
						"name": "depthwise_conv2d_2",
						"inbound_nodes": [
							{
								"args": [
									{
										"class_name": "__keras_tensor__",
										"config": {
											"shape": [null, 50, 33, 64],
											"dtype": "float32",
											"keras_history": [
												"activation_4",
												0,
												0
											]
										}
									}
								],
								"kwargs": {}
							}
						]
					},
					{
						"class_name": "Conv2D",
						"config": {
							"name": "conv2d_6",
							"trainable": true,
							"dtype": {
								"module": "keras",
								"class_name": "DTypePolicy",
								"config": { "name": "float32" },
								"registered_name": null
							},
							"filters": 64,
							"kernel_size": [1, 1],
							"strides": [1, 1],
							"padding": "same",
							"data_format": "channels_last",
							"dilation_rate": [1, 1],
							"groups": 1,
							"activation": "linear",
							"use_bias": true,
							"kernel_initializer": {
								"module": "keras.initializers",
								"class_name": "GlorotUniform",
								"config": { "seed": null },
								"registered_name": null
							},
							"bias_initializer": {
								"module": "keras.initializers",
								"class_name": "Zeros",
								"config": {},
								"registered_name": null
							},
							"kernel_regularizer": {
								"module": "keras.regularizers",
								"class_name": "L2",
								"config": { "l2": 0.0001 },
								"registered_name": null
							},
							"bias_regularizer": null,
							"activity_regularizer": null,
							"kernel_constraint": null,
							"bias_constraint": null
						},
						"name": "conv2d_6",
						"inbound_nodes": [
							{
								"args": [
									{
										"class_name": "__keras_tensor__",
										"config": {
											"shape": [null, 50, 33, 64],
											"dtype": "float32",
											"keras_history": [
												"depthwise_conv2d_2",
												0,
												0
											]
										}
									}
								],
								"kwargs": {}
							}
						]
					},
					{
						"class_name": "BatchNormalization",
						"config": {
							"name": "batch_normalization_7",
							"trainable": true,
							"dtype": {
								"module": "keras",
								"class_name": "DTypePolicy",
								"config": { "name": "float32" },
								"registered_name": null
							},
							"axis": -1,
							"momentum": 0.99,
							"epsilon": 0.001,
							"center": true,
							"scale": true,
							"beta_initializer": {
								"module": "keras.initializers",
								"class_name": "Zeros",
								"config": {},
								"registered_name": null
							},
							"gamma_initializer": {
								"module": "keras.initializers",
								"class_name": "Ones",
								"config": {},
								"registered_name": null
							},
							"moving_mean_initializer": {
								"module": "keras.initializers",
								"class_name": "Zeros",
								"config": {},
								"registered_name": null
							},
							"moving_variance_initializer": {
								"module": "keras.initializers",
								"class_name": "Ones",
								"config": {},
								"registered_name": null
							},
							"beta_regularizer": null,
							"gamma_regularizer": null,
							"beta_constraint": null,
							"gamma_constraint": null,
							"synchronized": false
						},
						"name": "batch_normalization_7",
						"inbound_nodes": [
							{
								"args": [
									{
										"class_name": "__keras_tensor__",
										"config": {
											"shape": [null, 50, 33, 64],
											"dtype": "float32",
											"keras_history": ["conv2d_6", 0, 0]
										}
									}
								],
								"kwargs": { "mask": null }
							}
						]
					},
					{
						"class_name": "Add",
						"config": {
							"name": "add_2",
							"trainable": true,
							"dtype": {
								"module": "keras",
								"class_name": "DTypePolicy",
								"config": { "name": "float32" },
								"registered_name": null
							}
						},
						"name": "add_2",
						"inbound_nodes": [
							{
								"args": [
									[
										{
											"class_name": "__keras_tensor__",
											"config": {
												"shape": [null, 50, 33, 64],
												"dtype": "float32",
												"keras_history": [
													"batch_normalization_7",
													0,
													0
												]
											}
										},
										{
											"class_name": "__keras_tensor__",
											"config": {
												"shape": [null, 50, 33, 64],
												"dtype": "float32",
												"keras_history": [
													"dropout_1",
													0,
													0
												]
											}
										}
									]
								],
								"kwargs": {}
							}
						]
					},
					{
						"class_name": "Activation",
						"config": {
							"name": "activation_5",
							"trainable": true,
							"dtype": {
								"module": "keras",
								"class_name": "DTypePolicy",
								"config": { "name": "float32" },
								"registered_name": null
							},
							"activation": "relu"
						},
						"name": "activation_5",
						"inbound_nodes": [
							{
								"args": [
									{
										"class_name": "__keras_tensor__",
										"config": {
											"shape": [null, 50, 33, 64],
											"dtype": "float32",
											"keras_history": ["add_2", 0, 0]
										}
									}
								],
								"kwargs": {}
							}
						]
					},
					{
						"class_name": "Dropout",
						"config": {
							"name": "dropout_2",
							"trainable": true,
							"dtype": {
								"module": "keras",
								"class_name": "DTypePolicy",
								"config": { "name": "float32" },
								"registered_name": null
							},
							"rate": 0.5,
							"seed": null,
							"noise_shape": null
						},
						"name": "dropout_2",
						"inbound_nodes": [
							{
								"args": [
									{
										"class_name": "__keras_tensor__",
										"config": {
											"shape": [null, 50, 33, 64],
											"dtype": "float32",
											"keras_history": [
												"activation_5",
												0,
												0
											]
										}
									}
								],
								"kwargs": { "training": false }
							}
						]
					},
					{
						"class_name": "GraphConv",
						"config": {
							"out_channels": 64,
							"trainable": true,
							"dtype": {
								"module": "keras",
								"class_name": "DTypePolicy",
								"config": { "name": "float32" },
								"registered_name": null
							}
						},
						"name": "graph_conv_3",
						"inbound_nodes": [
							{
								"args": [
									{
										"class_name": "__keras_tensor__",
										"config": {
											"shape": [null, 50, 33, 64],
											"dtype": "float32",
											"keras_history": ["dropout_2", 0, 0]
										}
									}
								],
								"kwargs": {}
							}
						]
					},
					{
						"class_name": "BatchNormalization",
						"config": {
							"name": "batch_normalization_8",
							"trainable": true,
							"dtype": {
								"module": "keras",
								"class_name": "DTypePolicy",
								"config": { "name": "float32" },
								"registered_name": null
							},
							"axis": -1,
							"momentum": 0.99,
							"epsilon": 0.001,
							"center": true,
							"scale": true,
							"beta_initializer": {
								"module": "keras.initializers",
								"class_name": "Zeros",
								"config": {},
								"registered_name": null
							},
							"gamma_initializer": {
								"module": "keras.initializers",
								"class_name": "Ones",
								"config": {},
								"registered_name": null
							},
							"moving_mean_initializer": {
								"module": "keras.initializers",
								"class_name": "Zeros",
								"config": {},
								"registered_name": null
							},
							"moving_variance_initializer": {
								"module": "keras.initializers",
								"class_name": "Ones",
								"config": {},
								"registered_name": null
							},
							"beta_regularizer": null,
							"gamma_regularizer": null,
							"beta_constraint": null,
							"gamma_constraint": null,
							"synchronized": false
						},
						"name": "batch_normalization_8",
						"inbound_nodes": [
							{
								"args": [
									{
										"class_name": "__keras_tensor__",
										"config": {
											"shape": [null, 50, 33, 64],
											"dtype": "float32",
											"keras_history": [
												"graph_conv_3",
												0,
												0
											]
										}
									}
								],
								"kwargs": { "mask": null }
							}
						]
					},
					{
						"class_name": "Activation",
						"config": {
							"name": "activation_6",
							"trainable": true,
							"dtype": {
								"module": "keras",
								"class_name": "DTypePolicy",
								"config": { "name": "float32" },
								"registered_name": null
							},
							"activation": "relu"
						},
						"name": "activation_6",
						"inbound_nodes": [
							{
								"args": [
									{
										"class_name": "__keras_tensor__",
										"config": {
											"shape": [null, 50, 33, 64],
											"dtype": "float32",
											"keras_history": [
												"batch_normalization_8",
												0,
												0
											]
										}
									}
								],
								"kwargs": {}
							}
						]
					},
					{
						"class_name": "DepthwiseConv2D",
						"config": {
							"name": "depthwise_conv2d_3",
							"trainable": true,
							"dtype": {
								"module": "keras",
								"class_name": "DTypePolicy",
								"config": { "name": "float32" },
								"registered_name": null
							},
							"depth_multiplier": 1,
							"kernel_size": [9, 1],
							"strides": [1, 1],
							"padding": "same",
							"data_format": "channels_last",
							"dilation_rate": [1, 1],
							"activation": "linear",
							"use_bias": true,
							"depthwise_initializer": {
								"module": "keras.initializers",
								"class_name": "GlorotUniform",
								"config": { "seed": null },
								"registered_name": null
							},
							"bias_initializer": {
								"module": "keras.initializers",
								"class_name": "Zeros",
								"config": {},
								"registered_name": null
							},
							"depthwise_regularizer": {
								"module": "keras.regularizers",
								"class_name": "L2",
								"config": { "l2": 0.0001 },
								"registered_name": null
							},
							"bias_regularizer": null,
							"activity_regularizer": null,
							"depthwise_constraint": null,
							"bias_constraint": null
						},
						"name": "depthwise_conv2d_3",
						"inbound_nodes": [
							{
								"args": [
									{
										"class_name": "__keras_tensor__",
										"config": {
											"shape": [null, 50, 33, 64],
											"dtype": "float32",
											"keras_history": [
												"activation_6",
												0,
												0
											]
										}
									}
								],
								"kwargs": {}
							}
						]
					},
					{
						"class_name": "Conv2D",
						"config": {
							"name": "conv2d_8",
							"trainable": true,
							"dtype": {
								"module": "keras",
								"class_name": "DTypePolicy",
								"config": { "name": "float32" },
								"registered_name": null
							},
							"filters": 64,
							"kernel_size": [1, 1],
							"strides": [1, 1],
							"padding": "same",
							"data_format": "channels_last",
							"dilation_rate": [1, 1],
							"groups": 1,
							"activation": "linear",
							"use_bias": true,
							"kernel_initializer": {
								"module": "keras.initializers",
								"class_name": "GlorotUniform",
								"config": { "seed": null },
								"registered_name": null
							},
							"bias_initializer": {
								"module": "keras.initializers",
								"class_name": "Zeros",
								"config": {},
								"registered_name": null
							},
							"kernel_regularizer": {
								"module": "keras.regularizers",
								"class_name": "L2",
								"config": { "l2": 0.0001 },
								"registered_name": null
							},
							"bias_regularizer": null,
							"activity_regularizer": null,
							"kernel_constraint": null,
							"bias_constraint": null
						},
						"name": "conv2d_8",
						"inbound_nodes": [
							{
								"args": [
									{
										"class_name": "__keras_tensor__",
										"config": {
											"shape": [null, 50, 33, 64],
											"dtype": "float32",
											"keras_history": [
												"depthwise_conv2d_3",
												0,
												0
											]
										}
									}
								],
								"kwargs": {}
							}
						]
					},
					{
						"class_name": "BatchNormalization",
						"config": {
							"name": "batch_normalization_9",
							"trainable": true,
							"dtype": {
								"module": "keras",
								"class_name": "DTypePolicy",
								"config": { "name": "float32" },
								"registered_name": null
							},
							"axis": -1,
							"momentum": 0.99,
							"epsilon": 0.001,
							"center": true,
							"scale": true,
							"beta_initializer": {
								"module": "keras.initializers",
								"class_name": "Zeros",
								"config": {},
								"registered_name": null
							},
							"gamma_initializer": {
								"module": "keras.initializers",
								"class_name": "Ones",
								"config": {},
								"registered_name": null
							},
							"moving_mean_initializer": {
								"module": "keras.initializers",
								"class_name": "Zeros",
								"config": {},
								"registered_name": null
							},
							"moving_variance_initializer": {
								"module": "keras.initializers",
								"class_name": "Ones",
								"config": {},
								"registered_name": null
							},
							"beta_regularizer": null,
							"gamma_regularizer": null,
							"beta_constraint": null,
							"gamma_constraint": null,
							"synchronized": false
						},
						"name": "batch_normalization_9",
						"inbound_nodes": [
							{
								"args": [
									{
										"class_name": "__keras_tensor__",
										"config": {
											"shape": [null, 50, 33, 64],
											"dtype": "float32",
											"keras_history": ["conv2d_8", 0, 0]
										}
									}
								],
								"kwargs": { "mask": null }
							}
						]
					},
					{
						"class_name": "Add",
						"config": {
							"name": "add_3",
							"trainable": true,
							"dtype": {
								"module": "keras",
								"class_name": "DTypePolicy",
								"config": { "name": "float32" },
								"registered_name": null
							}
						},
						"name": "add_3",
						"inbound_nodes": [
							{
								"args": [
									[
										{
											"class_name": "__keras_tensor__",
											"config": {
												"shape": [null, 50, 33, 64],
												"dtype": "float32",
												"keras_history": [
													"batch_normalization_9",
													0,
													0
												]
											}
										},
										{
											"class_name": "__keras_tensor__",
											"config": {
												"shape": [null, 50, 33, 64],
												"dtype": "float32",
												"keras_history": [
													"dropout_2",
													0,
													0
												]
											}
										}
									]
								],
								"kwargs": {}
							}
						]
					},
					{
						"class_name": "Activation",
						"config": {
							"name": "activation_7",
							"trainable": true,
							"dtype": {
								"module": "keras",
								"class_name": "DTypePolicy",
								"config": { "name": "float32" },
								"registered_name": null
							},
							"activation": "relu"
						},
						"name": "activation_7",
						"inbound_nodes": [
							{
								"args": [
									{
										"class_name": "__keras_tensor__",
										"config": {
											"shape": [null, 50, 33, 64],
											"dtype": "float32",
											"keras_history": ["add_3", 0, 0]
										}
									}
								],
								"kwargs": {}
							}
						]
					},
					{
						"class_name": "Dropout",
						"config": {
							"name": "dropout_3",
							"trainable": true,
							"dtype": {
								"module": "keras",
								"class_name": "DTypePolicy",
								"config": { "name": "float32" },
								"registered_name": null
							},
							"rate": 0.5,
							"seed": null,
							"noise_shape": null
						},
						"name": "dropout_3",
						"inbound_nodes": [
							{
								"args": [
									{
										"class_name": "__keras_tensor__",
										"config": {
											"shape": [null, 50, 33, 64],
											"dtype": "float32",
											"keras_history": [
												"activation_7",
												0,
												0
											]
										}
									}
								],
								"kwargs": { "training": false }
							}
						]
					},
					{
						"class_name": "GraphConv",
						"config": {
							"out_channels": 128,
							"trainable": true,
							"dtype": {
								"module": "keras",
								"class_name": "DTypePolicy",
								"config": { "name": "float32" },
								"registered_name": null
							}
						},
						"name": "graph_conv_4",
						"inbound_nodes": [
							{
								"args": [
									{
										"class_name": "__keras_tensor__",
										"config": {
											"shape": [null, 50, 33, 64],
											"dtype": "float32",
											"keras_history": ["dropout_3", 0, 0]
										}
									}
								],
								"kwargs": {}
							}
						]
					},
					{
						"class_name": "BatchNormalization",
						"config": {
							"name": "batch_normalization_10",
							"trainable": true,
							"dtype": {
								"module": "keras",
								"class_name": "DTypePolicy",
								"config": { "name": "float32" },
								"registered_name": null
							},
							"axis": -1,
							"momentum": 0.99,
							"epsilon": 0.001,
							"center": true,
							"scale": true,
							"beta_initializer": {
								"module": "keras.initializers",
								"class_name": "Zeros",
								"config": {},
								"registered_name": null
							},
							"gamma_initializer": {
								"module": "keras.initializers",
								"class_name": "Ones",
								"config": {},
								"registered_name": null
							},
							"moving_mean_initializer": {
								"module": "keras.initializers",
								"class_name": "Zeros",
								"config": {},
								"registered_name": null
							},
							"moving_variance_initializer": {
								"module": "keras.initializers",
								"class_name": "Ones",
								"config": {},
								"registered_name": null
							},
							"beta_regularizer": null,
							"gamma_regularizer": null,
							"beta_constraint": null,
							"gamma_constraint": null,
							"synchronized": false
						},
						"name": "batch_normalization_10",
						"inbound_nodes": [
							{
								"args": [
									{
										"class_name": "__keras_tensor__",
										"config": {
											"shape": [null, 50, 33, 128],
											"dtype": "float32",
											"keras_history": [
												"graph_conv_4",
												0,
												0
											]
										}
									}
								],
								"kwargs": { "mask": null }
							}
						]
					},
					{
						"class_name": "Activation",
						"config": {
							"name": "activation_8",
							"trainable": true,
							"dtype": {
								"module": "keras",
								"class_name": "DTypePolicy",
								"config": { "name": "float32" },
								"registered_name": null
							},
							"activation": "relu"
						},
						"name": "activation_8",
						"inbound_nodes": [
							{
								"args": [
									{
										"class_name": "__keras_tensor__",
										"config": {
											"shape": [null, 50, 33, 128],
											"dtype": "float32",
											"keras_history": [
												"batch_normalization_10",
												0,
												0
											]
										}
									}
								],
								"kwargs": {}
							}
						]
					},
					{
						"class_name": "DepthwiseConv2D",
						"config": {
							"name": "depthwise_conv2d_4",
							"trainable": true,
							"dtype": {
								"module": "keras",
								"class_name": "DTypePolicy",
								"config": { "name": "float32" },
								"registered_name": null
							},
							"depth_multiplier": 1,
							"kernel_size": [9, 1],
							"strides": [2, 1],
							"padding": "same",
							"data_format": "channels_last",
							"dilation_rate": [1, 1],
							"activation": "linear",
							"use_bias": true,
							"depthwise_initializer": {
								"module": "keras.initializers",
								"class_name": "GlorotUniform",
								"config": { "seed": null },
								"registered_name": null
							},
							"bias_initializer": {
								"module": "keras.initializers",
								"class_name": "Zeros",
								"config": {},
								"registered_name": null
							},
							"depthwise_regularizer": {
								"module": "keras.regularizers",
								"class_name": "L2",
								"config": { "l2": 0.0001 },
								"registered_name": null
							},
							"bias_regularizer": null,
							"activity_regularizer": null,
							"depthwise_constraint": null,
							"bias_constraint": null
						},
						"name": "depthwise_conv2d_4",
						"inbound_nodes": [
							{
								"args": [
									{
										"class_name": "__keras_tensor__",
										"config": {
											"shape": [null, 50, 33, 128],
											"dtype": "float32",
											"keras_history": [
												"activation_8",
												0,
												0
											]
										}
									}
								],
								"kwargs": {}
							}
						]
					},
					{
						"class_name": "Conv2D",
						"config": {
							"name": "conv2d_10",
							"trainable": true,
							"dtype": {
								"module": "keras",
								"class_name": "DTypePolicy",
								"config": { "name": "float32" },
								"registered_name": null
							},
							"filters": 128,
							"kernel_size": [1, 1],
							"strides": [1, 1],
							"padding": "same",
							"data_format": "channels_last",
							"dilation_rate": [1, 1],
							"groups": 1,
							"activation": "linear",
							"use_bias": true,
							"kernel_initializer": {
								"module": "keras.initializers",
								"class_name": "GlorotUniform",
								"config": { "seed": null },
								"registered_name": null
							},
							"bias_initializer": {
								"module": "keras.initializers",
								"class_name": "Zeros",
								"config": {},
								"registered_name": null
							},
							"kernel_regularizer": {
								"module": "keras.regularizers",
								"class_name": "L2",
								"config": { "l2": 0.0001 },
								"registered_name": null
							},
							"bias_regularizer": null,
							"activity_regularizer": null,
							"kernel_constraint": null,
							"bias_constraint": null
						},
						"name": "conv2d_10",
						"inbound_nodes": [
							{
								"args": [
									{
										"class_name": "__keras_tensor__",
										"config": {
											"shape": [null, 25, 33, 128],
											"dtype": "float32",
											"keras_history": [
												"depthwise_conv2d_4",
												0,
												0
											]
										}
									}
								],
								"kwargs": {}
							}
						]
					},
					{
						"class_name": "Conv2D",
						"config": {
							"name": "conv2d_11",
							"trainable": true,
							"dtype": {
								"module": "keras",
								"class_name": "DTypePolicy",
								"config": { "name": "float32" },
								"registered_name": null
							},
							"filters": 128,
							"kernel_size": [1, 1],
							"strides": [2, 1],
							"padding": "same",
							"data_format": "channels_last",
							"dilation_rate": [1, 1],
							"groups": 1,
							"activation": "linear",
							"use_bias": true,
							"kernel_initializer": {
								"module": "keras.initializers",
								"class_name": "GlorotUniform",
								"config": { "seed": null },
								"registered_name": null
							},
							"bias_initializer": {
								"module": "keras.initializers",
								"class_name": "Zeros",
								"config": {},
								"registered_name": null
							},
							"kernel_regularizer": {
								"module": "keras.regularizers",
								"class_name": "L2",
								"config": { "l2": 0.0001 },
								"registered_name": null
							},
							"bias_regularizer": null,
							"activity_regularizer": null,
							"kernel_constraint": null,
							"bias_constraint": null
						},
						"name": "conv2d_11",
						"inbound_nodes": [
							{
								"args": [
									{
										"class_name": "__keras_tensor__",
										"config": {
											"shape": [null, 50, 33, 64],
											"dtype": "float32",
											"keras_history": ["dropout_3", 0, 0]
										}
									}
								],
								"kwargs": {}
							}
						]
					},
					{
						"class_name": "BatchNormalization",
						"config": {
							"name": "batch_normalization_11",
							"trainable": true,
							"dtype": {
								"module": "keras",
								"class_name": "DTypePolicy",
								"config": { "name": "float32" },
								"registered_name": null
							},
							"axis": -1,
							"momentum": 0.99,
							"epsilon": 0.001,
							"center": true,
							"scale": true,
							"beta_initializer": {
								"module": "keras.initializers",
								"class_name": "Zeros",
								"config": {},
								"registered_name": null
							},
							"gamma_initializer": {
								"module": "keras.initializers",
								"class_name": "Ones",
								"config": {},
								"registered_name": null
							},
							"moving_mean_initializer": {
								"module": "keras.initializers",
								"class_name": "Zeros",
								"config": {},
								"registered_name": null
							},
							"moving_variance_initializer": {
								"module": "keras.initializers",
								"class_name": "Ones",
								"config": {},
								"registered_name": null
							},
							"beta_regularizer": null,
							"gamma_regularizer": null,
							"beta_constraint": null,
							"gamma_constraint": null,
							"synchronized": false
						},
						"name": "batch_normalization_11",
						"inbound_nodes": [
							{
								"args": [
									{
										"class_name": "__keras_tensor__",
										"config": {
											"shape": [null, 25, 33, 128],
											"dtype": "float32",
											"keras_history": ["conv2d_10", 0, 0]
										}
									}
								],
								"kwargs": { "mask": null }
							}
						]
					},
					{
						"class_name": "BatchNormalization",
						"config": {
							"name": "batch_normalization_12",
							"trainable": true,
							"dtype": {
								"module": "keras",
								"class_name": "DTypePolicy",
								"config": { "name": "float32" },
								"registered_name": null
							},
							"axis": -1,
							"momentum": 0.99,
							"epsilon": 0.001,
							"center": true,
							"scale": true,
							"beta_initializer": {
								"module": "keras.initializers",
								"class_name": "Zeros",
								"config": {},
								"registered_name": null
							},
							"gamma_initializer": {
								"module": "keras.initializers",
								"class_name": "Ones",
								"config": {},
								"registered_name": null
							},
							"moving_mean_initializer": {
								"module": "keras.initializers",
								"class_name": "Zeros",
								"config": {},
								"registered_name": null
							},
							"moving_variance_initializer": {
								"module": "keras.initializers",
								"class_name": "Ones",
								"config": {},
								"registered_name": null
							},
							"beta_regularizer": null,
							"gamma_regularizer": null,
							"beta_constraint": null,
							"gamma_constraint": null,
							"synchronized": false
						},
						"name": "batch_normalization_12",
						"inbound_nodes": [
							{
								"args": [
									{
										"class_name": "__keras_tensor__",
										"config": {
											"shape": [null, 25, 33, 128],
											"dtype": "float32",
											"keras_history": ["conv2d_11", 0, 0]
										}
									}
								],
								"kwargs": { "mask": null }
							}
						]
					},
					{
						"class_name": "Add",
						"config": {
							"name": "add_4",
							"trainable": true,
							"dtype": {
								"module": "keras",
								"class_name": "DTypePolicy",
								"config": { "name": "float32" },
								"registered_name": null
							}
						},
						"name": "add_4",
						"inbound_nodes": [
							{
								"args": [
									[
										{
											"class_name": "__keras_tensor__",
											"config": {
												"shape": [null, 25, 33, 128],
												"dtype": "float32",
												"keras_history": [
													"batch_normalization_11",
													0,
													0
												]
											}
										},
										{
											"class_name": "__keras_tensor__",
											"config": {
												"shape": [null, 25, 33, 128],
												"dtype": "float32",
												"keras_history": [
													"batch_normalization_12",
													0,
													0
												]
											}
										}
									]
								],
								"kwargs": {}
							}
						]
					},
					{
						"class_name": "Activation",
						"config": {
							"name": "activation_9",
							"trainable": true,
							"dtype": {
								"module": "keras",
								"class_name": "DTypePolicy",
								"config": { "name": "float32" },
								"registered_name": null
							},
							"activation": "relu"
						},
						"name": "activation_9",
						"inbound_nodes": [
							{
								"args": [
									{
										"class_name": "__keras_tensor__",
										"config": {
											"shape": [null, 25, 33, 128],
											"dtype": "float32",
											"keras_history": ["add_4", 0, 0]
										}
									}
								],
								"kwargs": {}
							}
						]
					},
					{
						"class_name": "Dropout",
						"config": {
							"name": "dropout_4",
							"trainable": true,
							"dtype": {
								"module": "keras",
								"class_name": "DTypePolicy",
								"config": { "name": "float32" },
								"registered_name": null
							},
							"rate": 0.5,
							"seed": null,
							"noise_shape": null
						},
						"name": "dropout_4",
						"inbound_nodes": [
							{
								"args": [
									{
										"class_name": "__keras_tensor__",
										"config": {
											"shape": [null, 25, 33, 128],
											"dtype": "float32",
											"keras_history": [
												"activation_9",
												0,
												0
											]
										}
									}
								],
								"kwargs": { "training": false }
							}
						]
					},
					{
						"class_name": "GraphConv",
						"config": {
							"out_channels": 128,
							"trainable": true,
							"dtype": {
								"module": "keras",
								"class_name": "DTypePolicy",
								"config": { "name": "float32" },
								"registered_name": null
							}
						},
						"name": "graph_conv_5",
						"inbound_nodes": [
							{
								"args": [
									{
										"class_name": "__keras_tensor__",
										"config": {
											"shape": [null, 25, 33, 128],
											"dtype": "float32",
											"keras_history": ["dropout_4", 0, 0]
										}
									}
								],
								"kwargs": {}
							}
						]
					},
					{
						"class_name": "BatchNormalization",
						"config": {
							"name": "batch_normalization_13",
							"trainable": true,
							"dtype": {
								"module": "keras",
								"class_name": "DTypePolicy",
								"config": { "name": "float32" },
								"registered_name": null
							},
							"axis": -1,
							"momentum": 0.99,
							"epsilon": 0.001,
							"center": true,
							"scale": true,
							"beta_initializer": {
								"module": "keras.initializers",
								"class_name": "Zeros",
								"config": {},
								"registered_name": null
							},
							"gamma_initializer": {
								"module": "keras.initializers",
								"class_name": "Ones",
								"config": {},
								"registered_name": null
							},
							"moving_mean_initializer": {
								"module": "keras.initializers",
								"class_name": "Zeros",
								"config": {},
								"registered_name": null
							},
							"moving_variance_initializer": {
								"module": "keras.initializers",
								"class_name": "Ones",
								"config": {},
								"registered_name": null
							},
							"beta_regularizer": null,
							"gamma_regularizer": null,
							"beta_constraint": null,
							"gamma_constraint": null,
							"synchronized": false
						},
						"name": "batch_normalization_13",
						"inbound_nodes": [
							{
								"args": [
									{
										"class_name": "__keras_tensor__",
										"config": {
											"shape": [null, 25, 33, 128],
											"dtype": "float32",
											"keras_history": [
												"graph_conv_5",
												0,
												0
											]
										}
									}
								],
								"kwargs": { "mask": null }
							}
						]
					},
					{
						"class_name": "Activation",
						"config": {
							"name": "activation_10",
							"trainable": true,
							"dtype": {
								"module": "keras",
								"class_name": "DTypePolicy",
								"config": { "name": "float32" },
								"registered_name": null
							},
							"activation": "relu"
						},
						"name": "activation_10",
						"inbound_nodes": [
							{
								"args": [
									{
										"class_name": "__keras_tensor__",
										"config": {
											"shape": [null, 25, 33, 128],
											"dtype": "float32",
											"keras_history": [
												"batch_normalization_13",
												0,
												0
											]
										}
									}
								],
								"kwargs": {}
							}
						]
					},
					{
						"class_name": "DepthwiseConv2D",
						"config": {
							"name": "depthwise_conv2d_5",
							"trainable": true,
							"dtype": {
								"module": "keras",
								"class_name": "DTypePolicy",
								"config": { "name": "float32" },
								"registered_name": null
							},
							"depth_multiplier": 1,
							"kernel_size": [9, 1],
							"strides": [1, 1],
							"padding": "same",
							"data_format": "channels_last",
							"dilation_rate": [1, 1],
							"activation": "linear",
							"use_bias": true,
							"depthwise_initializer": {
								"module": "keras.initializers",
								"class_name": "GlorotUniform",
								"config": { "seed": null },
								"registered_name": null
							},
							"bias_initializer": {
								"module": "keras.initializers",
								"class_name": "Zeros",
								"config": {},
								"registered_name": null
							},
							"depthwise_regularizer": {
								"module": "keras.regularizers",
								"class_name": "L2",
								"config": { "l2": 0.0001 },
								"registered_name": null
							},
							"bias_regularizer": null,
							"activity_regularizer": null,
							"depthwise_constraint": null,
							"bias_constraint": null
						},
						"name": "depthwise_conv2d_5",
						"inbound_nodes": [
							{
								"args": [
									{
										"class_name": "__keras_tensor__",
										"config": {
											"shape": [null, 25, 33, 128],
											"dtype": "float32",
											"keras_history": [
												"activation_10",
												0,
												0
											]
										}
									}
								],
								"kwargs": {}
							}
						]
					},
					{
						"class_name": "Conv2D",
						"config": {
							"name": "conv2d_13",
							"trainable": true,
							"dtype": {
								"module": "keras",
								"class_name": "DTypePolicy",
								"config": { "name": "float32" },
								"registered_name": null
							},
							"filters": 128,
							"kernel_size": [1, 1],
							"strides": [1, 1],
							"padding": "same",
							"data_format": "channels_last",
							"dilation_rate": [1, 1],
							"groups": 1,
							"activation": "linear",
							"use_bias": true,
							"kernel_initializer": {
								"module": "keras.initializers",
								"class_name": "GlorotUniform",
								"config": { "seed": null },
								"registered_name": null
							},
							"bias_initializer": {
								"module": "keras.initializers",
								"class_name": "Zeros",
								"config": {},
								"registered_name": null
							},
							"kernel_regularizer": {
								"module": "keras.regularizers",
								"class_name": "L2",
								"config": { "l2": 0.0001 },
								"registered_name": null
							},
							"bias_regularizer": null,
							"activity_regularizer": null,
							"kernel_constraint": null,
							"bias_constraint": null
						},
						"name": "conv2d_13",
						"inbound_nodes": [
							{
								"args": [
									{
										"class_name": "__keras_tensor__",
										"config": {
											"shape": [null, 25, 33, 128],
											"dtype": "float32",
											"keras_history": [
												"depthwise_conv2d_5",
												0,
												0
											]
										}
									}
								],
								"kwargs": {}
							}
						]
					},
					{
						"class_name": "BatchNormalization",
						"config": {
							"name": "batch_normalization_14",
							"trainable": true,
							"dtype": {
								"module": "keras",
								"class_name": "DTypePolicy",
								"config": { "name": "float32" },
								"registered_name": null
							},
							"axis": -1,
							"momentum": 0.99,
							"epsilon": 0.001,
							"center": true,
							"scale": true,
							"beta_initializer": {
								"module": "keras.initializers",
								"class_name": "Zeros",
								"config": {},
								"registered_name": null
							},
							"gamma_initializer": {
								"module": "keras.initializers",
								"class_name": "Ones",
								"config": {},
								"registered_name": null
							},
							"moving_mean_initializer": {
								"module": "keras.initializers",
								"class_name": "Zeros",
								"config": {},
								"registered_name": null
							},
							"moving_variance_initializer": {
								"module": "keras.initializers",
								"class_name": "Ones",
								"config": {},
								"registered_name": null
							},
							"beta_regularizer": null,
							"gamma_regularizer": null,
							"beta_constraint": null,
							"gamma_constraint": null,
							"synchronized": false
						},
						"name": "batch_normalization_14",
						"inbound_nodes": [
							{
								"args": [
									{
										"class_name": "__keras_tensor__",
										"config": {
											"shape": [null, 25, 33, 128],
											"dtype": "float32",
											"keras_history": ["conv2d_13", 0, 0]
										}
									}
								],
								"kwargs": { "mask": null }
							}
						]
					},
					{
						"class_name": "Add",
						"config": {
							"name": "add_5",
							"trainable": true,
							"dtype": {
								"module": "keras",
								"class_name": "DTypePolicy",
								"config": { "name": "float32" },
								"registered_name": null
							}
						},
						"name": "add_5",
						"inbound_nodes": [
							{
								"args": [
									[
										{
											"class_name": "__keras_tensor__",
											"config": {
												"shape": [null, 25, 33, 128],
												"dtype": "float32",
												"keras_history": [
													"batch_normalization_14",
													0,
													0
												]
											}
										},
										{
											"class_name": "__keras_tensor__",
											"config": {
												"shape": [null, 25, 33, 128],
												"dtype": "float32",
												"keras_history": [
													"dropout_4",
													0,
													0
												]
											}
										}
									]
								],
								"kwargs": {}
							}
						]
					},
					{
						"class_name": "Activation",
						"config": {
							"name": "activation_11",
							"trainable": true,
							"dtype": {
								"module": "keras",
								"class_name": "DTypePolicy",
								"config": { "name": "float32" },
								"registered_name": null
							},
							"activation": "relu"
						},
						"name": "activation_11",
						"inbound_nodes": [
							{
								"args": [
									{
										"class_name": "__keras_tensor__",
										"config": {
											"shape": [null, 25, 33, 128],
											"dtype": "float32",
											"keras_history": ["add_5", 0, 0]
										}
									}
								],
								"kwargs": {}
							}
						]
					},
					{
						"class_name": "Dropout",
						"config": {
							"name": "dropout_5",
							"trainable": true,
							"dtype": {
								"module": "keras",
								"class_name": "DTypePolicy",
								"config": { "name": "float32" },
								"registered_name": null
							},
							"rate": 0.5,
							"seed": null,
							"noise_shape": null
						},
						"name": "dropout_5",
						"inbound_nodes": [
							{
								"args": [
									{
										"class_name": "__keras_tensor__",
										"config": {
											"shape": [null, 25, 33, 128],
											"dtype": "float32",
											"keras_history": [
												"activation_11",
												0,
												0
											]
										}
									}
								],
								"kwargs": { "training": false }
							}
						]
					},
					{
						"class_name": "GraphConv",
						"config": {
							"out_channels": 128,
							"trainable": true,
							"dtype": {
								"module": "keras",
								"class_name": "DTypePolicy",
								"config": { "name": "float32" },
								"registered_name": null
							}
						},
						"name": "graph_conv_6",
						"inbound_nodes": [
							{
								"args": [
									{
										"class_name": "__keras_tensor__",
										"config": {
											"shape": [null, 25, 33, 128],
											"dtype": "float32",
											"keras_history": ["dropout_5", 0, 0]
										}
									}
								],
								"kwargs": {}
							}
						]
					},
					{
						"class_name": "BatchNormalization",
						"config": {
							"name": "batch_normalization_15",
							"trainable": true,
							"dtype": {
								"module": "keras",
								"class_name": "DTypePolicy",
								"config": { "name": "float32" },
								"registered_name": null
							},
							"axis": -1,
							"momentum": 0.99,
							"epsilon": 0.001,
							"center": true,
							"scale": true,
							"beta_initializer": {
								"module": "keras.initializers",
								"class_name": "Zeros",
								"config": {},
								"registered_name": null
							},
							"gamma_initializer": {
								"module": "keras.initializers",
								"class_name": "Ones",
								"config": {},
								"registered_name": null
							},
							"moving_mean_initializer": {
								"module": "keras.initializers",
								"class_name": "Zeros",
								"config": {},
								"registered_name": null
							},
							"moving_variance_initializer": {
								"module": "keras.initializers",
								"class_name": "Ones",
								"config": {},
								"registered_name": null
							},
							"beta_regularizer": null,
							"gamma_regularizer": null,
							"beta_constraint": null,
							"gamma_constraint": null,
							"synchronized": false
						},
						"name": "batch_normalization_15",
						"inbound_nodes": [
							{
								"args": [
									{
										"class_name": "__keras_tensor__",
										"config": {
											"shape": [null, 25, 33, 128],
											"dtype": "float32",
											"keras_history": [
												"graph_conv_6",
												0,
												0
											]
										}
									}
								],
								"kwargs": { "mask": null }
							}
						]
					},
					{
						"class_name": "Activation",
						"config": {
							"name": "activation_12",
							"trainable": true,
							"dtype": {
								"module": "keras",
								"class_name": "DTypePolicy",
								"config": { "name": "float32" },
								"registered_name": null
							},
							"activation": "relu"
						},
						"name": "activation_12",
						"inbound_nodes": [
							{
								"args": [
									{
										"class_name": "__keras_tensor__",
										"config": {
											"shape": [null, 25, 33, 128],
											"dtype": "float32",
											"keras_history": [
												"batch_normalization_15",
												0,
												0
											]
										}
									}
								],
								"kwargs": {}
							}
						]
					},
					{
						"class_name": "DepthwiseConv2D",
						"config": {
							"name": "depthwise_conv2d_6",
							"trainable": true,
							"dtype": {
								"module": "keras",
								"class_name": "DTypePolicy",
								"config": { "name": "float32" },
								"registered_name": null
							},
							"depth_multiplier": 1,
							"kernel_size": [9, 1],
							"strides": [1, 1],
							"padding": "same",
							"data_format": "channels_last",
							"dilation_rate": [1, 1],
							"activation": "linear",
							"use_bias": true,
							"depthwise_initializer": {
								"module": "keras.initializers",
								"class_name": "GlorotUniform",
								"config": { "seed": null },
								"registered_name": null
							},
							"bias_initializer": {
								"module": "keras.initializers",
								"class_name": "Zeros",
								"config": {},
								"registered_name": null
							},
							"depthwise_regularizer": {
								"module": "keras.regularizers",
								"class_name": "L2",
								"config": { "l2": 0.0001 },
								"registered_name": null
							},
							"bias_regularizer": null,
							"activity_regularizer": null,
							"depthwise_constraint": null,
							"bias_constraint": null
						},
						"name": "depthwise_conv2d_6",
						"inbound_nodes": [
							{
								"args": [
									{
										"class_name": "__keras_tensor__",
										"config": {
											"shape": [null, 25, 33, 128],
											"dtype": "float32",
											"keras_history": [
												"activation_12",
												0,
												0
											]
										}
									}
								],
								"kwargs": {}
							}
						]
					},
					{
						"class_name": "Conv2D",
						"config": {
							"name": "conv2d_15",
							"trainable": true,
							"dtype": {
								"module": "keras",
								"class_name": "DTypePolicy",
								"config": { "name": "float32" },
								"registered_name": null
							},
							"filters": 128,
							"kernel_size": [1, 1],
							"strides": [1, 1],
							"padding": "same",
							"data_format": "channels_last",
							"dilation_rate": [1, 1],
							"groups": 1,
							"activation": "linear",
							"use_bias": true,
							"kernel_initializer": {
								"module": "keras.initializers",
								"class_name": "GlorotUniform",
								"config": { "seed": null },
								"registered_name": null
							},
							"bias_initializer": {
								"module": "keras.initializers",
								"class_name": "Zeros",
								"config": {},
								"registered_name": null
							},
							"kernel_regularizer": {
								"module": "keras.regularizers",
								"class_name": "L2",
								"config": { "l2": 0.0001 },
								"registered_name": null
							},
							"bias_regularizer": null,
							"activity_regularizer": null,
							"kernel_constraint": null,
							"bias_constraint": null
						},
						"name": "conv2d_15",
						"inbound_nodes": [
							{
								"args": [
									{
										"class_name": "__keras_tensor__",
										"config": {
											"shape": [null, 25, 33, 128],
											"dtype": "float32",
											"keras_history": [
												"depthwise_conv2d_6",
												0,
												0
											]
										}
									}
								],
								"kwargs": {}
							}
						]
					},
					{
						"class_name": "BatchNormalization",
						"config": {
							"name": "batch_normalization_16",
							"trainable": true,
							"dtype": {
								"module": "keras",
								"class_name": "DTypePolicy",
								"config": { "name": "float32" },
								"registered_name": null
							},
							"axis": -1,
							"momentum": 0.99,
							"epsilon": 0.001,
							"center": true,
							"scale": true,
							"beta_initializer": {
								"module": "keras.initializers",
								"class_name": "Zeros",
								"config": {},
								"registered_name": null
							},
							"gamma_initializer": {
								"module": "keras.initializers",
								"class_name": "Ones",
								"config": {},
								"registered_name": null
							},
							"moving_mean_initializer": {
								"module": "keras.initializers",
								"class_name": "Zeros",
								"config": {},
								"registered_name": null
							},
							"moving_variance_initializer": {
								"module": "keras.initializers",
								"class_name": "Ones",
								"config": {},
								"registered_name": null
							},
							"beta_regularizer": null,
							"gamma_regularizer": null,
							"beta_constraint": null,
							"gamma_constraint": null,
							"synchronized": false
						},
						"name": "batch_normalization_16",
						"inbound_nodes": [
							{
								"args": [
									{
										"class_name": "__keras_tensor__",
										"config": {
											"shape": [null, 25, 33, 128],
											"dtype": "float32",
											"keras_history": ["conv2d_15", 0, 0]
										}
									}
								],
								"kwargs": { "mask": null }
							}
						]
					},
					{
						"class_name": "Add",
						"config": {
							"name": "add_6",
							"trainable": true,
							"dtype": {
								"module": "keras",
								"class_name": "DTypePolicy",
								"config": { "name": "float32" },
								"registered_name": null
							}
						},
						"name": "add_6",
						"inbound_nodes": [
							{
								"args": [
									[
										{
											"class_name": "__keras_tensor__",
											"config": {
												"shape": [null, 25, 33, 128],
												"dtype": "float32",
												"keras_history": [
													"batch_normalization_16",
													0,
													0
												]
											}
										},
										{
											"class_name": "__keras_tensor__",
											"config": {
												"shape": [null, 25, 33, 128],
												"dtype": "float32",
												"keras_history": [
													"dropout_5",
													0,
													0
												]
											}
										}
									]
								],
								"kwargs": {}
							}
						]
					},
					{
						"class_name": "Activation",
						"config": {
							"name": "activation_13",
							"trainable": true,
							"dtype": {
								"module": "keras",
								"class_name": "DTypePolicy",
								"config": { "name": "float32" },
								"registered_name": null
							},
							"activation": "relu"
						},
						"name": "activation_13",
						"inbound_nodes": [
							{
								"args": [
									{
										"class_name": "__keras_tensor__",
										"config": {
											"shape": [null, 25, 33, 128],
											"dtype": "float32",
											"keras_history": ["add_6", 0, 0]
										}
									}
								],
								"kwargs": {}
							}
						]
					},
					{
						"class_name": "Dropout",
						"config": {
							"name": "dropout_6",
							"trainable": true,
							"dtype": {
								"module": "keras",
								"class_name": "DTypePolicy",
								"config": { "name": "float32" },
								"registered_name": null
							},
							"rate": 0.5,
							"seed": null,
							"noise_shape": null
						},
						"name": "dropout_6",
						"inbound_nodes": [
							{
								"args": [
									{
										"class_name": "__keras_tensor__",
										"config": {
											"shape": [null, 25, 33, 128],
											"dtype": "float32",
											"keras_history": [
												"activation_13",
												0,
												0
											]
										}
									}
								],
								"kwargs": { "training": false }
							}
						]
					},
					{
						"class_name": "GraphConv",
						"config": {
							"out_channels": 256,
							"trainable": true,
							"dtype": {
								"module": "keras",
								"class_name": "DTypePolicy",
								"config": { "name": "float32" },
								"registered_name": null
							}
						},
						"name": "graph_conv_7",
						"inbound_nodes": [
							{
								"args": [
									{
										"class_name": "__keras_tensor__",
										"config": {
											"shape": [null, 25, 33, 128],
											"dtype": "float32",
											"keras_history": ["dropout_6", 0, 0]
										}
									}
								],
								"kwargs": {}
							}
						]
					},
					{
						"class_name": "BatchNormalization",
						"config": {
							"name": "batch_normalization_17",
							"trainable": true,
							"dtype": {
								"module": "keras",
								"class_name": "DTypePolicy",
								"config": { "name": "float32" },
								"registered_name": null
							},
							"axis": -1,
							"momentum": 0.99,
							"epsilon": 0.001,
							"center": true,
							"scale": true,
							"beta_initializer": {
								"module": "keras.initializers",
								"class_name": "Zeros",
								"config": {},
								"registered_name": null
							},
							"gamma_initializer": {
								"module": "keras.initializers",
								"class_name": "Ones",
								"config": {},
								"registered_name": null
							},
							"moving_mean_initializer": {
								"module": "keras.initializers",
								"class_name": "Zeros",
								"config": {},
								"registered_name": null
							},
							"moving_variance_initializer": {
								"module": "keras.initializers",
								"class_name": "Ones",
								"config": {},
								"registered_name": null
							},
							"beta_regularizer": null,
							"gamma_regularizer": null,
							"beta_constraint": null,
							"gamma_constraint": null,
							"synchronized": false
						},
						"name": "batch_normalization_17",
						"inbound_nodes": [
							{
								"args": [
									{
										"class_name": "__keras_tensor__",
										"config": {
											"shape": [null, 25, 33, 256],
											"dtype": "float32",
											"keras_history": [
												"graph_conv_7",
												0,
												0
											]
										}
									}
								],
								"kwargs": { "mask": null }
							}
						]
					},
					{
						"class_name": "Activation",
						"config": {
							"name": "activation_14",
							"trainable": true,
							"dtype": {
								"module": "keras",
								"class_name": "DTypePolicy",
								"config": { "name": "float32" },
								"registered_name": null
							},
							"activation": "relu"
						},
						"name": "activation_14",
						"inbound_nodes": [
							{
								"args": [
									{
										"class_name": "__keras_tensor__",
										"config": {
											"shape": [null, 25, 33, 256],
											"dtype": "float32",
											"keras_history": [
												"batch_normalization_17",
												0,
												0
											]
										}
									}
								],
								"kwargs": {}
							}
						]
					},
					{
						"class_name": "DepthwiseConv2D",
						"config": {
							"name": "depthwise_conv2d_7",
							"trainable": true,
							"dtype": {
								"module": "keras",
								"class_name": "DTypePolicy",
								"config": { "name": "float32" },
								"registered_name": null
							},
							"depth_multiplier": 1,
							"kernel_size": [9, 1],
							"strides": [2, 1],
							"padding": "same",
							"data_format": "channels_last",
							"dilation_rate": [1, 1],
							"activation": "linear",
							"use_bias": true,
							"depthwise_initializer": {
								"module": "keras.initializers",
								"class_name": "GlorotUniform",
								"config": { "seed": null },
								"registered_name": null
							},
							"bias_initializer": {
								"module": "keras.initializers",
								"class_name": "Zeros",
								"config": {},
								"registered_name": null
							},
							"depthwise_regularizer": {
								"module": "keras.regularizers",
								"class_name": "L2",
								"config": { "l2": 0.0001 },
								"registered_name": null
							},
							"bias_regularizer": null,
							"activity_regularizer": null,
							"depthwise_constraint": null,
							"bias_constraint": null
						},
						"name": "depthwise_conv2d_7",
						"inbound_nodes": [
							{
								"args": [
									{
										"class_name": "__keras_tensor__",
										"config": {
											"shape": [null, 25, 33, 256],
											"dtype": "float32",
											"keras_history": [
												"activation_14",
												0,
												0
											]
										}
									}
								],
								"kwargs": {}
							}
						]
					},
					{
						"class_name": "Conv2D",
						"config": {
							"name": "conv2d_17",
							"trainable": true,
							"dtype": {
								"module": "keras",
								"class_name": "DTypePolicy",
								"config": { "name": "float32" },
								"registered_name": null
							},
							"filters": 256,
							"kernel_size": [1, 1],
							"strides": [1, 1],
							"padding": "same",
							"data_format": "channels_last",
							"dilation_rate": [1, 1],
							"groups": 1,
							"activation": "linear",
							"use_bias": true,
							"kernel_initializer": {
								"module": "keras.initializers",
								"class_name": "GlorotUniform",
								"config": { "seed": null },
								"registered_name": null
							},
							"bias_initializer": {
								"module": "keras.initializers",
								"class_name": "Zeros",
								"config": {},
								"registered_name": null
							},
							"kernel_regularizer": {
								"module": "keras.regularizers",
								"class_name": "L2",
								"config": { "l2": 0.0001 },
								"registered_name": null
							},
							"bias_regularizer": null,
							"activity_regularizer": null,
							"kernel_constraint": null,
							"bias_constraint": null
						},
						"name": "conv2d_17",
						"inbound_nodes": [
							{
								"args": [
									{
										"class_name": "__keras_tensor__",
										"config": {
											"shape": [null, 13, 33, 256],
											"dtype": "float32",
											"keras_history": [
												"depthwise_conv2d_7",
												0,
												0
											]
										}
									}
								],
								"kwargs": {}
							}
						]
					},
					{
						"class_name": "Conv2D",
						"config": {
							"name": "conv2d_18",
							"trainable": true,
							"dtype": {
								"module": "keras",
								"class_name": "DTypePolicy",
								"config": { "name": "float32" },
								"registered_name": null
							},
							"filters": 256,
							"kernel_size": [1, 1],
							"strides": [2, 1],
							"padding": "same",
							"data_format": "channels_last",
							"dilation_rate": [1, 1],
							"groups": 1,
							"activation": "linear",
							"use_bias": true,
							"kernel_initializer": {
								"module": "keras.initializers",
								"class_name": "GlorotUniform",
								"config": { "seed": null },
								"registered_name": null
							},
							"bias_initializer": {
								"module": "keras.initializers",
								"class_name": "Zeros",
								"config": {},
								"registered_name": null
							},
							"kernel_regularizer": {
								"module": "keras.regularizers",
								"class_name": "L2",
								"config": { "l2": 0.0001 },
								"registered_name": null
							},
							"bias_regularizer": null,
							"activity_regularizer": null,
							"kernel_constraint": null,
							"bias_constraint": null
						},
						"name": "conv2d_18",
						"inbound_nodes": [
							{
								"args": [
									{
										"class_name": "__keras_tensor__",
										"config": {
											"shape": [null, 25, 33, 128],
											"dtype": "float32",
											"keras_history": ["dropout_6", 0, 0]
										}
									}
								],
								"kwargs": {}
							}
						]
					},
					{
						"class_name": "BatchNormalization",
						"config": {
							"name": "batch_normalization_18",
							"trainable": true,
							"dtype": {
								"module": "keras",
								"class_name": "DTypePolicy",
								"config": { "name": "float32" },
								"registered_name": null
							},
							"axis": -1,
							"momentum": 0.99,
							"epsilon": 0.001,
							"center": true,
							"scale": true,
							"beta_initializer": {
								"module": "keras.initializers",
								"class_name": "Zeros",
								"config": {},
								"registered_name": null
							},
							"gamma_initializer": {
								"module": "keras.initializers",
								"class_name": "Ones",
								"config": {},
								"registered_name": null
							},
							"moving_mean_initializer": {
								"module": "keras.initializers",
								"class_name": "Zeros",
								"config": {},
								"registered_name": null
							},
							"moving_variance_initializer": {
								"module": "keras.initializers",
								"class_name": "Ones",
								"config": {},
								"registered_name": null
							},
							"beta_regularizer": null,
							"gamma_regularizer": null,
							"beta_constraint": null,
							"gamma_constraint": null,
							"synchronized": false
						},
						"name": "batch_normalization_18",
						"inbound_nodes": [
							{
								"args": [
									{
										"class_name": "__keras_tensor__",
										"config": {
											"shape": [null, 13, 33, 256],
											"dtype": "float32",
											"keras_history": ["conv2d_17", 0, 0]
										}
									}
								],
								"kwargs": { "mask": null }
							}
						]
					},
					{
						"class_name": "BatchNormalization",
						"config": {
							"name": "batch_normalization_19",
							"trainable": true,
							"dtype": {
								"module": "keras",
								"class_name": "DTypePolicy",
								"config": { "name": "float32" },
								"registered_name": null
							},
							"axis": -1,
							"momentum": 0.99,
							"epsilon": 0.001,
							"center": true,
							"scale": true,
							"beta_initializer": {
								"module": "keras.initializers",
								"class_name": "Zeros",
								"config": {},
								"registered_name": null
							},
							"gamma_initializer": {
								"module": "keras.initializers",
								"class_name": "Ones",
								"config": {},
								"registered_name": null
							},
							"moving_mean_initializer": {
								"module": "keras.initializers",
								"class_name": "Zeros",
								"config": {},
								"registered_name": null
							},
							"moving_variance_initializer": {
								"module": "keras.initializers",
								"class_name": "Ones",
								"config": {},
								"registered_name": null
							},
							"beta_regularizer": null,
							"gamma_regularizer": null,
							"beta_constraint": null,
							"gamma_constraint": null,
							"synchronized": false
						},
						"name": "batch_normalization_19",
						"inbound_nodes": [
							{
								"args": [
									{
										"class_name": "__keras_tensor__",
										"config": {
											"shape": [null, 13, 33, 256],
											"dtype": "float32",
											"keras_history": ["conv2d_18", 0, 0]
										}
									}
								],
								"kwargs": { "mask": null }
							}
						]
					},
					{
						"class_name": "Add",
						"config": {
							"name": "add_7",
							"trainable": true,
							"dtype": {
								"module": "keras",
								"class_name": "DTypePolicy",
								"config": { "name": "float32" },
								"registered_name": null
							}
						},
						"name": "add_7",
						"inbound_nodes": [
							{
								"args": [
									[
										{
											"class_name": "__keras_tensor__",
											"config": {
												"shape": [null, 13, 33, 256],
												"dtype": "float32",
												"keras_history": [
													"batch_normalization_18",
													0,
													0
												]
											}
										},
										{
											"class_name": "__keras_tensor__",
											"config": {
												"shape": [null, 13, 33, 256],
												"dtype": "float32",
												"keras_history": [
													"batch_normalization_19",
													0,
													0
												]
											}
										}
									]
								],
								"kwargs": {}
							}
						]
					},
					{
						"class_name": "Activation",
						"config": {
							"name": "activation_15",
							"trainable": true,
							"dtype": {
								"module": "keras",
								"class_name": "DTypePolicy",
								"config": { "name": "float32" },
								"registered_name": null
							},
							"activation": "relu"
						},
						"name": "activation_15",
						"inbound_nodes": [
							{
								"args": [
									{
										"class_name": "__keras_tensor__",
										"config": {
											"shape": [null, 13, 33, 256],
											"dtype": "float32",
											"keras_history": ["add_7", 0, 0]
										}
									}
								],
								"kwargs": {}
							}
						]
					},
					{
						"class_name": "Dropout",
						"config": {
							"name": "dropout_7",
							"trainable": true,
							"dtype": {
								"module": "keras",
								"class_name": "DTypePolicy",
								"config": { "name": "float32" },
								"registered_name": null
							},
							"rate": 0.5,
							"seed": null,
							"noise_shape": null
						},
						"name": "dropout_7",
						"inbound_nodes": [
							{
								"args": [
									{
										"class_name": "__keras_tensor__",
										"config": {
											"shape": [null, 13, 33, 256],
											"dtype": "float32",
											"keras_history": [
												"activation_15",
												0,
												0
											]
										}
									}
								],
								"kwargs": { "training": false }
							}
						]
					},
					{
						"class_name": "GraphConv",
						"config": {
							"out_channels": 256,
							"trainable": true,
							"dtype": {
								"module": "keras",
								"class_name": "DTypePolicy",
								"config": { "name": "float32" },
								"registered_name": null
							}
						},
						"name": "graph_conv_8",
						"inbound_nodes": [
							{
								"args": [
									{
										"class_name": "__keras_tensor__",
										"config": {
											"shape": [null, 13, 33, 256],
											"dtype": "float32",
											"keras_history": ["dropout_7", 0, 0]
										}
									}
								],
								"kwargs": {}
							}
						]
					},
					{
						"class_name": "BatchNormalization",
						"config": {
							"name": "batch_normalization_20",
							"trainable": true,
							"dtype": {
								"module": "keras",
								"class_name": "DTypePolicy",
								"config": { "name": "float32" },
								"registered_name": null
							},
							"axis": -1,
							"momentum": 0.99,
							"epsilon": 0.001,
							"center": true,
							"scale": true,
							"beta_initializer": {
								"module": "keras.initializers",
								"class_name": "Zeros",
								"config": {},
								"registered_name": null
							},
							"gamma_initializer": {
								"module": "keras.initializers",
								"class_name": "Ones",
								"config": {},
								"registered_name": null
							},
							"moving_mean_initializer": {
								"module": "keras.initializers",
								"class_name": "Zeros",
								"config": {},
								"registered_name": null
							},
							"moving_variance_initializer": {
								"module": "keras.initializers",
								"class_name": "Ones",
								"config": {},
								"registered_name": null
							},
							"beta_regularizer": null,
							"gamma_regularizer": null,
							"beta_constraint": null,
							"gamma_constraint": null,
							"synchronized": false
						},
						"name": "batch_normalization_20",
						"inbound_nodes": [
							{
								"args": [
									{
										"class_name": "__keras_tensor__",
										"config": {
											"shape": [null, 13, 33, 256],
											"dtype": "float32",
											"keras_history": [
												"graph_conv_8",
												0,
												0
											]
										}
									}
								],
								"kwargs": { "mask": null }
							}
						]
					},
					{
						"class_name": "Activation",
						"config": {
							"name": "activation_16",
							"trainable": true,
							"dtype": {
								"module": "keras",
								"class_name": "DTypePolicy",
								"config": { "name": "float32" },
								"registered_name": null
							},
							"activation": "relu"
						},
						"name": "activation_16",
						"inbound_nodes": [
							{
								"args": [
									{
										"class_name": "__keras_tensor__",
										"config": {
											"shape": [null, 13, 33, 256],
											"dtype": "float32",
											"keras_history": [
												"batch_normalization_20",
												0,
												0
											]
										}
									}
								],
								"kwargs": {}
							}
						]
					},
					{
						"class_name": "DepthwiseConv2D",
						"config": {
							"name": "depthwise_conv2d_8",
							"trainable": true,
							"dtype": {
								"module": "keras",
								"class_name": "DTypePolicy",
								"config": { "name": "float32" },
								"registered_name": null
							},
							"depth_multiplier": 1,
							"kernel_size": [9, 1],
							"strides": [1, 1],
							"padding": "same",
							"data_format": "channels_last",
							"dilation_rate": [1, 1],
							"activation": "linear",
							"use_bias": true,
							"depthwise_initializer": {
								"module": "keras.initializers",
								"class_name": "GlorotUniform",
								"config": { "seed": null },
								"registered_name": null
							},
							"bias_initializer": {
								"module": "keras.initializers",
								"class_name": "Zeros",
								"config": {},
								"registered_name": null
							},
							"depthwise_regularizer": {
								"module": "keras.regularizers",
								"class_name": "L2",
								"config": { "l2": 0.0001 },
								"registered_name": null
							},
							"bias_regularizer": null,
							"activity_regularizer": null,
							"depthwise_constraint": null,
							"bias_constraint": null
						},
						"name": "depthwise_conv2d_8",
						"inbound_nodes": [
							{
								"args": [
									{
										"class_name": "__keras_tensor__",
										"config": {
											"shape": [null, 13, 33, 256],
											"dtype": "float32",
											"keras_history": [
												"activation_16",
												0,
												0
											]
										}
									}
								],
								"kwargs": {}
							}
						]
					},
					{
						"class_name": "Conv2D",
						"config": {
							"name": "conv2d_20",
							"trainable": true,
							"dtype": {
								"module": "keras",
								"class_name": "DTypePolicy",
								"config": { "name": "float32" },
								"registered_name": null
							},
							"filters": 256,
							"kernel_size": [1, 1],
							"strides": [1, 1],
							"padding": "same",
							"data_format": "channels_last",
							"dilation_rate": [1, 1],
							"groups": 1,
							"activation": "linear",
							"use_bias": true,
							"kernel_initializer": {
								"module": "keras.initializers",
								"class_name": "GlorotUniform",
								"config": { "seed": null },
								"registered_name": null
							},
							"bias_initializer": {
								"module": "keras.initializers",
								"class_name": "Zeros",
								"config": {},
								"registered_name": null
							},
							"kernel_regularizer": {
								"module": "keras.regularizers",
								"class_name": "L2",
								"config": { "l2": 0.0001 },
								"registered_name": null
							},
							"bias_regularizer": null,
							"activity_regularizer": null,
							"kernel_constraint": null,
							"bias_constraint": null
						},
						"name": "conv2d_20",
						"inbound_nodes": [
							{
								"args": [
									{
										"class_name": "__keras_tensor__",
										"config": {
											"shape": [null, 13, 33, 256],
											"dtype": "float32",
											"keras_history": [
												"depthwise_conv2d_8",
												0,
												0
											]
										}
									}
								],
								"kwargs": {}
							}
						]
					},
					{
						"class_name": "BatchNormalization",
						"config": {
							"name": "batch_normalization_21",
							"trainable": true,
							"dtype": {
								"module": "keras",
								"class_name": "DTypePolicy",
								"config": { "name": "float32" },
								"registered_name": null
							},
							"axis": -1,
							"momentum": 0.99,
							"epsilon": 0.001,
							"center": true,
							"scale": true,
							"beta_initializer": {
								"module": "keras.initializers",
								"class_name": "Zeros",
								"config": {},
								"registered_name": null
							},
							"gamma_initializer": {
								"module": "keras.initializers",
								"class_name": "Ones",
								"config": {},
								"registered_name": null
							},
							"moving_mean_initializer": {
								"module": "keras.initializers",
								"class_name": "Zeros",
								"config": {},
								"registered_name": null
							},
							"moving_variance_initializer": {
								"module": "keras.initializers",
								"class_name": "Ones",
								"config": {},
								"registered_name": null
							},
							"beta_regularizer": null,
							"gamma_regularizer": null,
							"beta_constraint": null,
							"gamma_constraint": null,
							"synchronized": false
						},
						"name": "batch_normalization_21",
						"inbound_nodes": [
							{
								"args": [
									{
										"class_name": "__keras_tensor__",
										"config": {
											"shape": [null, 13, 33, 256],
											"dtype": "float32",
											"keras_history": ["conv2d_20", 0, 0]
										}
									}
								],
								"kwargs": { "mask": null }
							}
						]
					},
					{
						"class_name": "Add",
						"config": {
							"name": "add_8",
							"trainable": true,
							"dtype": {
								"module": "keras",
								"class_name": "DTypePolicy",
								"config": { "name": "float32" },
								"registered_name": null
							}
						},
						"name": "add_8",
						"inbound_nodes": [
							{
								"args": [
									[
										{
											"class_name": "__keras_tensor__",
											"config": {
												"shape": [null, 13, 33, 256],
												"dtype": "float32",
												"keras_history": [
													"batch_normalization_21",
													0,
													0
												]
											}
										},
										{
											"class_name": "__keras_tensor__",
											"config": {
												"shape": [null, 13, 33, 256],
												"dtype": "float32",
												"keras_history": [
													"dropout_7",
													0,
													0
												]
											}
										}
									]
								],
								"kwargs": {}
							}
						]
					},
					{
						"class_name": "Activation",
						"config": {
							"name": "activation_17",
							"trainable": true,
							"dtype": {
								"module": "keras",
								"class_name": "DTypePolicy",
								"config": { "name": "float32" },
								"registered_name": null
							},
							"activation": "relu"
						},
						"name": "activation_17",
						"inbound_nodes": [
							{
								"args": [
									{
										"class_name": "__keras_tensor__",
										"config": {
											"shape": [null, 13, 33, 256],
											"dtype": "float32",
											"keras_history": ["add_8", 0, 0]
										}
									}
								],
								"kwargs": {}
							}
						]
					},
					{
						"class_name": "Dropout",
						"config": {
							"name": "dropout_8",
							"trainable": true,
							"dtype": {
								"module": "keras",
								"class_name": "DTypePolicy",
								"config": { "name": "float32" },
								"registered_name": null
							},
							"rate": 0.5,
							"seed": null,
							"noise_shape": null
						},
						"name": "dropout_8",
						"inbound_nodes": [
							{
								"args": [
									{
										"class_name": "__keras_tensor__",
										"config": {
											"shape": [null, 13, 33, 256],
											"dtype": "float32",
											"keras_history": [
												"activation_17",
												0,
												0
											]
										}
									}
								],
								"kwargs": { "training": false }
							}
						]
					},
					{
						"class_name": "GraphConv",
						"config": {
							"out_channels": 256,
							"trainable": true,
							"dtype": {
								"module": "keras",
								"class_name": "DTypePolicy",
								"config": { "name": "float32" },
								"registered_name": null
							}
						},
						"name": "graph_conv_9",
						"inbound_nodes": [
							{
								"args": [
									{
										"class_name": "__keras_tensor__",
										"config": {
											"shape": [null, 13, 33, 256],
											"dtype": "float32",
											"keras_history": ["dropout_8", 0, 0]
										}
									}
								],
								"kwargs": {}
							}
						]
					},
					{
						"class_name": "BatchNormalization",
						"config": {
							"name": "batch_normalization_22",
							"trainable": true,
							"dtype": {
								"module": "keras",
								"class_name": "DTypePolicy",
								"config": { "name": "float32" },
								"registered_name": null
							},
							"axis": -1,
							"momentum": 0.99,
							"epsilon": 0.001,
							"center": true,
							"scale": true,
							"beta_initializer": {
								"module": "keras.initializers",
								"class_name": "Zeros",
								"config": {},
								"registered_name": null
							},
							"gamma_initializer": {
								"module": "keras.initializers",
								"class_name": "Ones",
								"config": {},
								"registered_name": null
							},
							"moving_mean_initializer": {
								"module": "keras.initializers",
								"class_name": "Zeros",
								"config": {},
								"registered_name": null
							},
							"moving_variance_initializer": {
								"module": "keras.initializers",
								"class_name": "Ones",
								"config": {},
								"registered_name": null
							},
							"beta_regularizer": null,
							"gamma_regularizer": null,
							"beta_constraint": null,
							"gamma_constraint": null,
							"synchronized": false
						},
						"name": "batch_normalization_22",
						"inbound_nodes": [
							{
								"args": [
									{
										"class_name": "__keras_tensor__",
										"config": {
											"shape": [null, 13, 33, 256],
											"dtype": "float32",
											"keras_history": [
												"graph_conv_9",
												0,
												0
											]
										}
									}
								],
								"kwargs": { "mask": null }
							}
						]
					},
					{
						"class_name": "Activation",
						"config": {
							"name": "activation_18",
							"trainable": true,
							"dtype": {
								"module": "keras",
								"class_name": "DTypePolicy",
								"config": { "name": "float32" },
								"registered_name": null
							},
							"activation": "relu"
						},
						"name": "activation_18",
						"inbound_nodes": [
							{
								"args": [
									{
										"class_name": "__keras_tensor__",
										"config": {
											"shape": [null, 13, 33, 256],
											"dtype": "float32",
											"keras_history": [
												"batch_normalization_22",
												0,
												0
											]
										}
									}
								],
								"kwargs": {}
							}
						]
					},
					{
						"class_name": "DepthwiseConv2D",
						"config": {
							"name": "depthwise_conv2d_9",
							"trainable": true,
							"dtype": {
								"module": "keras",
								"class_name": "DTypePolicy",
								"config": { "name": "float32" },
								"registered_name": null
							},
							"depth_multiplier": 1,
							"kernel_size": [9, 1],
							"strides": [1, 1],
							"padding": "same",
							"data_format": "channels_last",
							"dilation_rate": [1, 1],
							"activation": "linear",
							"use_bias": true,
							"depthwise_initializer": {
								"module": "keras.initializers",
								"class_name": "GlorotUniform",
								"config": { "seed": null },
								"registered_name": null
							},
							"bias_initializer": {
								"module": "keras.initializers",
								"class_name": "Zeros",
								"config": {},
								"registered_name": null
							},
							"depthwise_regularizer": {
								"module": "keras.regularizers",
								"class_name": "L2",
								"config": { "l2": 0.0001 },
								"registered_name": null
							},
							"bias_regularizer": null,
							"activity_regularizer": null,
							"depthwise_constraint": null,
							"bias_constraint": null
						},
						"name": "depthwise_conv2d_9",
						"inbound_nodes": [
							{
								"args": [
									{
										"class_name": "__keras_tensor__",
										"config": {
											"shape": [null, 13, 33, 256],
											"dtype": "float32",
											"keras_history": [
												"activation_18",
												0,
												0
											]
										}
									}
								],
								"kwargs": {}
							}
						]
					},
					{
						"class_name": "Conv2D",
						"config": {
							"name": "conv2d_22",
							"trainable": true,
							"dtype": {
								"module": "keras",
								"class_name": "DTypePolicy",
								"config": { "name": "float32" },
								"registered_name": null
							},
							"filters": 256,
							"kernel_size": [1, 1],
							"strides": [1, 1],
							"padding": "same",
							"data_format": "channels_last",
							"dilation_rate": [1, 1],
							"groups": 1,
							"activation": "linear",
							"use_bias": true,
							"kernel_initializer": {
								"module": "keras.initializers",
								"class_name": "GlorotUniform",
								"config": { "seed": null },
								"registered_name": null
							},
							"bias_initializer": {
								"module": "keras.initializers",
								"class_name": "Zeros",
								"config": {},
								"registered_name": null
							},
							"kernel_regularizer": {
								"module": "keras.regularizers",
								"class_name": "L2",
								"config": { "l2": 0.0001 },
								"registered_name": null
							},
							"bias_regularizer": null,
							"activity_regularizer": null,
							"kernel_constraint": null,
							"bias_constraint": null
						},
						"name": "conv2d_22",
						"inbound_nodes": [
							{
								"args": [
									{
										"class_name": "__keras_tensor__",
										"config": {
											"shape": [null, 13, 33, 256],
											"dtype": "float32",
											"keras_history": [
												"depthwise_conv2d_9",
												0,
												0
											]
										}
									}
								],
								"kwargs": {}
							}
						]
					},
					{
						"class_name": "BatchNormalization",
						"config": {
							"name": "batch_normalization_23",
							"trainable": true,
							"dtype": {
								"module": "keras",
								"class_name": "DTypePolicy",
								"config": { "name": "float32" },
								"registered_name": null
							},
							"axis": -1,
							"momentum": 0.99,
							"epsilon": 0.001,
							"center": true,
							"scale": true,
							"beta_initializer": {
								"module": "keras.initializers",
								"class_name": "Zeros",
								"config": {},
								"registered_name": null
							},
							"gamma_initializer": {
								"module": "keras.initializers",
								"class_name": "Ones",
								"config": {},
								"registered_name": null
							},
							"moving_mean_initializer": {
								"module": "keras.initializers",
								"class_name": "Zeros",
								"config": {},
								"registered_name": null
							},
							"moving_variance_initializer": {
								"module": "keras.initializers",
								"class_name": "Ones",
								"config": {},
								"registered_name": null
							},
							"beta_regularizer": null,
							"gamma_regularizer": null,
							"beta_constraint": null,
							"gamma_constraint": null,
							"synchronized": false
						},
						"name": "batch_normalization_23",
						"inbound_nodes": [
							{
								"args": [
									{
										"class_name": "__keras_tensor__",
										"config": {
											"shape": [null, 13, 33, 256],
											"dtype": "float32",
											"keras_history": ["conv2d_22", 0, 0]
										}
									}
								],
								"kwargs": { "mask": null }
							}
						]
					},
					{
						"class_name": "Add",
						"config": {
							"name": "add_9",
							"trainable": true,
							"dtype": {
								"module": "keras",
								"class_name": "DTypePolicy",
								"config": { "name": "float32" },
								"registered_name": null
							}
						},
						"name": "add_9",
						"inbound_nodes": [
							{
								"args": [
									[
										{
											"class_name": "__keras_tensor__",
											"config": {
												"shape": [null, 13, 33, 256],
												"dtype": "float32",
												"keras_history": [
													"batch_normalization_23",
													0,
													0
												]
											}
										},
										{
											"class_name": "__keras_tensor__",
											"config": {
												"shape": [null, 13, 33, 256],
												"dtype": "float32",
												"keras_history": [
													"dropout_8",
													0,
													0
												]
											}
										}
									]
								],
								"kwargs": {}
							}
						]
					},
					{
						"class_name": "Activation",
						"config": {
							"name": "activation_19",
							"trainable": true,
							"dtype": {
								"module": "keras",
								"class_name": "DTypePolicy",
								"config": { "name": "float32" },
								"registered_name": null
							},
							"activation": "relu"
						},
						"name": "activation_19",
						"inbound_nodes": [
							{
								"args": [
									{
										"class_name": "__keras_tensor__",
										"config": {
											"shape": [null, 13, 33, 256],
											"dtype": "float32",
											"keras_history": ["add_9", 0, 0]
										}
									}
								],
								"kwargs": {}
							}
						]
					},
					{
						"class_name": "Dropout",
						"config": {
							"name": "dropout_9",
							"trainable": true,
							"dtype": {
								"module": "keras",
								"class_name": "DTypePolicy",
								"config": { "name": "float32" },
								"registered_name": null
							},
							"rate": 0.5,
							"seed": null,
							"noise_shape": null
						},
						"name": "dropout_9",
						"inbound_nodes": [
							{
								"args": [
									{
										"class_name": "__keras_tensor__",
										"config": {
											"shape": [null, 13, 33, 256],
											"dtype": "float32",
											"keras_history": [
												"activation_19",
												0,
												0
											]
										}
									}
								],
								"kwargs": { "training": false }
							}
						]
					},
					{
						"class_name": "GlobalAveragePooling2D",
						"config": {
							"name": "global_average_pooling2d",
							"trainable": true,
							"dtype": {
								"module": "keras",
								"class_name": "DTypePolicy",
								"config": { "name": "float32" },
								"registered_name": null
							},
							"data_format": "channels_last",
							"keepdims": false
						},
						"name": "global_average_pooling2d",
						"inbound_nodes": [
							{
								"args": [
									{
										"class_name": "__keras_tensor__",
										"config": {
											"shape": [null, 13, 33, 256],
											"dtype": "float32",
											"keras_history": ["dropout_9", 0, 0]
										}
									}
								],
								"kwargs": {}
							}
						]
					},
					{
						"class_name": "Dense",
						"config": {
							"name": "dense",
							"trainable": true,
							"dtype": {
								"module": "keras",
								"class_name": "DTypePolicy",
								"config": { "name": "float32" },
								"registered_name": null
							},
							"units": 4,
							"activation": "softmax",
							"use_bias": true,
							"kernel_initializer": {
								"module": "keras.initializers",
								"class_name": "GlorotUniform",
								"config": { "seed": null },
								"registered_name": null
							},
							"bias_initializer": {
								"module": "keras.initializers",
								"class_name": "Zeros",
								"config": {},
								"registered_name": null
							},
							"kernel_regularizer": {
								"module": "keras.regularizers",
								"class_name": "L2",
								"config": { "l2": 0.0001 },
								"registered_name": null
							},
							"bias_regularizer": null,
							"kernel_constraint": null,
							"bias_constraint": null
						},
						"name": "dense",
						"inbound_nodes": [
							{
								"args": [
									{
										"class_name": "__keras_tensor__",
										"config": {
											"shape": [null, 256],
											"dtype": "float32",
											"keras_history": [
												"global_average_pooling2d",
												0,
												0
											]
										}
									}
								],
								"kwargs": {}
							}
						]
					}
				],
				"input_layers": [["input_layer", 0, 0]],
				"output_layers": [["dense", 0, 0]]
			}
		},
		"training_config": {
			"loss": "sparse_categorical_crossentropy",
			"loss_weights": null,
			"metrics": ["accuracy"],
			"weighted_metrics": null,
			"run_eagerly": false,
			"steps_per_execution": 1,
			"jit_compile": true,
			"optimizer_config": {
				"class_name": "SGD",
				"config": {
					"name": "SGD",
					"learning_rate": 0.0010000000474974513,
					"weight_decay": null,
					"clipnorm": null,
					"global_clipnorm": null,
					"clipvalue": null,
					"use_ema": false,
					"ema_momentum": 0.99,
					"ema_overwrite_frequency": null,
					"loss_scale_factor": null,
					"gradient_accumulation_steps": null,
					"momentum": 0.9,
					"nesterov": false
				}
			}
		}
	},
	"weightsManifest": [
		{
			"paths": ["group1-shard1of1.bin"],
			"weights": [
				{
					"name": "batch_normalization/gamma",
					"shape": [8],
					"dtype": "float32"
				},
				{
					"name": "batch_normalization/beta",
					"shape": [8],
					"dtype": "float32"
				},
				{
					"name": "batch_normalization/moving_mean",
					"shape": [8],
					"dtype": "float32"
				},
				{
					"name": "batch_normalization/moving_variance",
					"shape": [8],
					"dtype": "float32"
				},
				{
					"name": "batch_normalization_1/gamma",
					"shape": [64],
					"dtype": "float32"
				},
				{
					"name": "batch_normalization_1/beta",
					"shape": [64],
					"dtype": "float32"
				},
				{
					"name": "batch_normalization_1/moving_mean",
					"shape": [64],
					"dtype": "float32"
				},
				{
					"name": "batch_normalization_1/moving_variance",
					"shape": [64],
					"dtype": "float32"
				},
				{
					"name": "batch_normalization_10/gamma",
					"shape": [128],
					"dtype": "float32"
				},
				{
					"name": "batch_normalization_10/beta",
					"shape": [128],
					"dtype": "float32"
				},
				{
					"name": "batch_normalization_10/moving_mean",
					"shape": [128],
					"dtype": "float32"
				},
				{
					"name": "batch_normalization_10/moving_variance",
					"shape": [128],
					"dtype": "float32"
				},
				{
					"name": "batch_normalization_11/gamma",
					"shape": [128],
					"dtype": "float32"
				},
				{
					"name": "batch_normalization_11/beta",
					"shape": [128],
					"dtype": "float32"
				},
				{
					"name": "batch_normalization_11/moving_mean",
					"shape": [128],
					"dtype": "float32"
				},
				{
					"name": "batch_normalization_11/moving_variance",
					"shape": [128],
					"dtype": "float32"
				},
				{
					"name": "batch_normalization_12/gamma",
					"shape": [128],
					"dtype": "float32"
				},
				{
					"name": "batch_normalization_12/beta",
					"shape": [128],
					"dtype": "float32"
				},
				{
					"name": "batch_normalization_12/moving_mean",
					"shape": [128],
					"dtype": "float32"
				},
				{
					"name": "batch_normalization_12/moving_variance",
					"shape": [128],
					"dtype": "float32"
				},
				{
					"name": "batch_normalization_13/gamma",
					"shape": [128],
					"dtype": "float32"
				},
				{
					"name": "batch_normalization_13/beta",
					"shape": [128],
					"dtype": "float32"
				},
				{
					"name": "batch_normalization_13/moving_mean",
					"shape": [128],
					"dtype": "float32"
				},
				{
					"name": "batch_normalization_13/moving_variance",
					"shape": [128],
					"dtype": "float32"
				},
				{
					"name": "batch_normalization_14/gamma",
					"shape": [128],
					"dtype": "float32"
				},
				{
					"name": "batch_normalization_14/beta",
					"shape": [128],
					"dtype": "float32"
				},
				{
					"name": "batch_normalization_14/moving_mean",
					"shape": [128],
					"dtype": "float32"
				},
				{
					"name": "batch_normalization_14/moving_variance",
					"shape": [128],
					"dtype": "float32"
				},
				{
					"name": "batch_normalization_15/gamma",
					"shape": [128],
					"dtype": "float32"
				},
				{
					"name": "batch_normalization_15/beta",
					"shape": [128],
					"dtype": "float32"
				},
				{
					"name": "batch_normalization_15/moving_mean",
					"shape": [128],
					"dtype": "float32"
				},
				{
					"name": "batch_normalization_15/moving_variance",
					"shape": [128],
					"dtype": "float32"
				},
				{
					"name": "batch_normalization_16/gamma",
					"shape": [128],
					"dtype": "float32"
				},
				{
					"name": "batch_normalization_16/beta",
					"shape": [128],
					"dtype": "float32"
				},
				{
					"name": "batch_normalization_16/moving_mean",
					"shape": [128],
					"dtype": "float32"
				},
				{
					"name": "batch_normalization_16/moving_variance",
					"shape": [128],
					"dtype": "float32"
				},
				{
					"name": "batch_normalization_17/gamma",
					"shape": [256],
					"dtype": "float32"
				},
				{
					"name": "batch_normalization_17/beta",
					"shape": [256],
					"dtype": "float32"
				},
				{
					"name": "batch_normalization_17/moving_mean",
					"shape": [256],
					"dtype": "float32"
				},
				{
					"name": "batch_normalization_17/moving_variance",
					"shape": [256],
					"dtype": "float32"
				},
				{
					"name": "batch_normalization_18/gamma",
					"shape": [256],
					"dtype": "float32"
				},
				{
					"name": "batch_normalization_18/beta",
					"shape": [256],
					"dtype": "float32"
				},
				{
					"name": "batch_normalization_18/moving_mean",
					"shape": [256],
					"dtype": "float32"
				},
				{
					"name": "batch_normalization_18/moving_variance",
					"shape": [256],
					"dtype": "float32"
				},
				{
					"name": "batch_normalization_19/gamma",
					"shape": [256],
					"dtype": "float32"
				},
				{
					"name": "batch_normalization_19/beta",
					"shape": [256],
					"dtype": "float32"
				},
				{
					"name": "batch_normalization_19/moving_mean",
					"shape": [256],
					"dtype": "float32"
				},
				{
					"name": "batch_normalization_19/moving_variance",
					"shape": [256],
					"dtype": "float32"
				},
				{
					"name": "batch_normalization_2/gamma",
					"shape": [64],
					"dtype": "float32"
				},
				{
					"name": "batch_normalization_2/beta",
					"shape": [64],
					"dtype": "float32"
				},
				{
					"name": "batch_normalization_2/moving_mean",
					"shape": [64],
					"dtype": "float32"
				},
				{
					"name": "batch_normalization_2/moving_variance",
					"shape": [64],
					"dtype": "float32"
				},
				{
					"name": "batch_normalization_20/gamma",
					"shape": [256],
					"dtype": "float32"
				},
				{
					"name": "batch_normalization_20/beta",
					"shape": [256],
					"dtype": "float32"
				},
				{
					"name": "batch_normalization_20/moving_mean",
					"shape": [256],
					"dtype": "float32"
				},
				{
					"name": "batch_normalization_20/moving_variance",
					"shape": [256],
					"dtype": "float32"
				},
				{
					"name": "batch_normalization_21/gamma",
					"shape": [256],
					"dtype": "float32"
				},
				{
					"name": "batch_normalization_21/beta",
					"shape": [256],
					"dtype": "float32"
				},
				{
					"name": "batch_normalization_21/moving_mean",
					"shape": [256],
					"dtype": "float32"
				},
				{
					"name": "batch_normalization_21/moving_variance",
					"shape": [256],
					"dtype": "float32"
				},
				{
					"name": "batch_normalization_22/gamma",
					"shape": [256],
					"dtype": "float32"
				},
				{
					"name": "batch_normalization_22/beta",
					"shape": [256],
					"dtype": "float32"
				},
				{
					"name": "batch_normalization_22/moving_mean",
					"shape": [256],
					"dtype": "float32"
				},
				{
					"name": "batch_normalization_22/moving_variance",
					"shape": [256],
					"dtype": "float32"
				},
				{
					"name": "batch_normalization_23/gamma",
					"shape": [256],
					"dtype": "float32"
				},
				{
					"name": "batch_normalization_23/beta",
					"shape": [256],
					"dtype": "float32"
				},
				{
					"name": "batch_normalization_23/moving_mean",
					"shape": [256],
					"dtype": "float32"
				},
				{
					"name": "batch_normalization_23/moving_variance",
					"shape": [256],
					"dtype": "float32"
				},
				{
					"name": "batch_normalization_3/gamma",
					"shape": [64],
					"dtype": "float32"
				},
				{
					"name": "batch_normalization_3/beta",
					"shape": [64],
					"dtype": "float32"
				},
				{
					"name": "batch_normalization_3/moving_mean",
					"shape": [64],
					"dtype": "float32"
				},
				{
					"name": "batch_normalization_3/moving_variance",
					"shape": [64],
					"dtype": "float32"
				},
				{
					"name": "batch_normalization_4/gamma",
					"shape": [64],
					"dtype": "float32"
				},
				{
					"name": "batch_normalization_4/beta",
					"shape": [64],
					"dtype": "float32"
				},
				{
					"name": "batch_normalization_4/moving_mean",
					"shape": [64],
					"dtype": "float32"
				},
				{
					"name": "batch_normalization_4/moving_variance",
					"shape": [64],
					"dtype": "float32"
				},
				{
					"name": "batch_normalization_5/gamma",
					"shape": [64],
					"dtype": "float32"
				},
				{
					"name": "batch_normalization_5/beta",
					"shape": [64],
					"dtype": "float32"
				},
				{
					"name": "batch_normalization_5/moving_mean",
					"shape": [64],
					"dtype": "float32"
				},
				{
					"name": "batch_normalization_5/moving_variance",
					"shape": [64],
					"dtype": "float32"
				},
				{
					"name": "batch_normalization_6/gamma",
					"shape": [64],
					"dtype": "float32"
				},
				{
					"name": "batch_normalization_6/beta",
					"shape": [64],
					"dtype": "float32"
				},
				{
					"name": "batch_normalization_6/moving_mean",
					"shape": [64],
					"dtype": "float32"
				},
				{
					"name": "batch_normalization_6/moving_variance",
					"shape": [64],
					"dtype": "float32"
				},
				{
					"name": "batch_normalization_7/gamma",
					"shape": [64],
					"dtype": "float32"
				},
				{
					"name": "batch_normalization_7/beta",
					"shape": [64],
					"dtype": "float32"
				},
				{
					"name": "batch_normalization_7/moving_mean",
					"shape": [64],
					"dtype": "float32"
				},
				{
					"name": "batch_normalization_7/moving_variance",
					"shape": [64],
					"dtype": "float32"
				},
				{
					"name": "batch_normalization_8/gamma",
					"shape": [64],
					"dtype": "float32"
				},
				{
					"name": "batch_normalization_8/beta",
					"shape": [64],
					"dtype": "float32"
				},
				{
					"name": "batch_normalization_8/moving_mean",
					"shape": [64],
					"dtype": "float32"
				},
				{
					"name": "batch_normalization_8/moving_variance",
					"shape": [64],
					"dtype": "float32"
				},
				{
					"name": "batch_normalization_9/gamma",
					"shape": [64],
					"dtype": "float32"
				},
				{
					"name": "batch_normalization_9/beta",
					"shape": [64],
					"dtype": "float32"
				},
				{
					"name": "batch_normalization_9/moving_mean",
					"shape": [64],
					"dtype": "float32"
				},
				{
					"name": "batch_normalization_9/moving_variance",
					"shape": [64],
					"dtype": "float32"
				},
				{
					"name": "conv2d_1/kernel",
					"shape": [1, 1, 64, 64],
					"dtype": "float32"
				},
				{ "name": "conv2d_1/bias", "shape": [64], "dtype": "float32" },
				{
					"name": "conv2d_10/kernel",
					"shape": [1, 1, 128, 128],
					"dtype": "float32"
				},
				{
					"name": "conv2d_10/bias",
					"shape": [128],
					"dtype": "float32"
				},
				{
					"name": "conv2d_11/kernel",
					"shape": [1, 1, 64, 128],
					"dtype": "float32"
				},
				{
					"name": "conv2d_11/bias",
					"shape": [128],
					"dtype": "float32"
				},
				{
					"name": "conv2d_13/kernel",
					"shape": [1, 1, 128, 128],
					"dtype": "float32"
				},
				{
					"name": "conv2d_13/bias",
					"shape": [128],
					"dtype": "float32"
				},
				{
					"name": "conv2d_15/kernel",
					"shape": [1, 1, 128, 128],
					"dtype": "float32"
				},
				{
					"name": "conv2d_15/bias",
					"shape": [128],
					"dtype": "float32"
				},
				{
					"name": "conv2d_17/kernel",
					"shape": [1, 1, 256, 256],
					"dtype": "float32"
				},
				{
					"name": "conv2d_17/bias",
					"shape": [256],
					"dtype": "float32"
				},
				{
					"name": "conv2d_18/kernel",
					"shape": [1, 1, 128, 256],
					"dtype": "float32"
				},
				{
					"name": "conv2d_18/bias",
					"shape": [256],
					"dtype": "float32"
				},
				{
					"name": "conv2d_2/kernel",
					"shape": [1, 1, 8, 64],
					"dtype": "float32"
				},
				{ "name": "conv2d_2/bias", "shape": [64], "dtype": "float32" },
				{
					"name": "conv2d_20/kernel",
					"shape": [1, 1, 256, 256],
					"dtype": "float32"
				},
				{
					"name": "conv2d_20/bias",
					"shape": [256],
					"dtype": "float32"
				},
				{
					"name": "conv2d_22/kernel",
					"shape": [1, 1, 256, 256],
					"dtype": "float32"
				},
				{
					"name": "conv2d_22/bias",
					"shape": [256],
					"dtype": "float32"
				},
				{
					"name": "conv2d_4/kernel",
					"shape": [1, 1, 64, 64],
					"dtype": "float32"
				},
				{ "name": "conv2d_4/bias", "shape": [64], "dtype": "float32" },
				{
					"name": "conv2d_6/kernel",
					"shape": [1, 1, 64, 64],
					"dtype": "float32"
				},
				{ "name": "conv2d_6/bias", "shape": [64], "dtype": "float32" },
				{
					"name": "conv2d_8/kernel",
					"shape": [1, 1, 64, 64],
					"dtype": "float32"
				},
				{ "name": "conv2d_8/bias", "shape": [64], "dtype": "float32" },
				{
					"name": "dense/kernel",
					"shape": [256, 4],
					"dtype": "float32"
				},
				{ "name": "dense/bias", "shape": [4], "dtype": "float32" },
				{
					"name": "depthwise_conv2d/kernel",
					"shape": [9, 1, 64, 1],
					"dtype": "float32"
				},
				{
					"name": "depthwise_conv2d/bias",
					"shape": [64],
					"dtype": "float32"
				},
				{
					"name": "depthwise_conv2d_1/kernel",
					"shape": [9, 1, 64, 1],
					"dtype": "float32"
				},
				{
					"name": "depthwise_conv2d_1/bias",
					"shape": [64],
					"dtype": "float32"
				},
				{
					"name": "depthwise_conv2d_2/kernel",
					"shape": [9, 1, 64, 1],
					"dtype": "float32"
				},
				{
					"name": "depthwise_conv2d_2/bias",
					"shape": [64],
					"dtype": "float32"
				},
				{
					"name": "depthwise_conv2d_3/kernel",
					"shape": [9, 1, 64, 1],
					"dtype": "float32"
				},
				{
					"name": "depthwise_conv2d_3/bias",
					"shape": [64],
					"dtype": "float32"
				},
				{
					"name": "depthwise_conv2d_4/kernel",
					"shape": [9, 1, 128, 1],
					"dtype": "float32"
				},
				{
					"name": "depthwise_conv2d_4/bias",
					"shape": [128],
					"dtype": "float32"
				},
				{
					"name": "depthwise_conv2d_5/kernel",
					"shape": [9, 1, 128, 1],
					"dtype": "float32"
				},
				{
					"name": "depthwise_conv2d_5/bias",
					"shape": [128],
					"dtype": "float32"
				},
				{
					"name": "depthwise_conv2d_6/kernel",
					"shape": [9, 1, 128, 1],
					"dtype": "float32"
				},
				{
					"name": "depthwise_conv2d_6/bias",
					"shape": [128],
					"dtype": "float32"
				},
				{
					"name": "depthwise_conv2d_7/kernel",
					"shape": [9, 1, 256, 1],
					"dtype": "float32"
				},
				{
					"name": "depthwise_conv2d_7/bias",
					"shape": [256],
					"dtype": "float32"
				},
				{
					"name": "depthwise_conv2d_8/kernel",
					"shape": [9, 1, 256, 1],
					"dtype": "float32"
				},
				{
					"name": "depthwise_conv2d_8/bias",
					"shape": [256],
					"dtype": "float32"
				},
				{
					"name": "depthwise_conv2d_9/kernel",
					"shape": [9, 1, 256, 1],
					"dtype": "float32"
				},
				{
					"name": "depthwise_conv2d_9/bias",
					"shape": [256],
					"dtype": "float32"
				},
				{
					"name": "graph_conv/edge_importance",
					"shape": [33, 33],
					"dtype": "float32"
				},
				{
					"name": "graph_conv/conv2d/kernel",
					"shape": [1, 1, 8, 64],
					"dtype": "float32"
				},
				{
					"name": "graph_conv/conv2d/bias",
					"shape": [64],
					"dtype": "float32"
				},
				{
					"name": "graph_conv_1/edge_importance",
					"shape": [33, 33],
					"dtype": "float32"
				},
				{
					"name": "graph_conv_1/conv2d_3/kernel",
					"shape": [1, 1, 64, 64],
					"dtype": "float32"
				},
				{
					"name": "graph_conv_1/conv2d_3/bias",
					"shape": [64],
					"dtype": "float32"
				},
				{
					"name": "graph_conv_2/edge_importance",
					"shape": [33, 33],
					"dtype": "float32"
				},
				{
					"name": "graph_conv_2/conv2d_5/kernel",
					"shape": [1, 1, 64, 64],
					"dtype": "float32"
				},
				{
					"name": "graph_conv_2/conv2d_5/bias",
					"shape": [64],
					"dtype": "float32"
				},
				{
					"name": "graph_conv_3/edge_importance",
					"shape": [33, 33],
					"dtype": "float32"
				},
				{
					"name": "graph_conv_3/conv2d_7/kernel",
					"shape": [1, 1, 64, 64],
					"dtype": "float32"
				},
				{
					"name": "graph_conv_3/conv2d_7/bias",
					"shape": [64],
					"dtype": "float32"
				},
				{
					"name": "graph_conv_4/edge_importance",
					"shape": [33, 33],
					"dtype": "float32"
				},
				{
					"name": "graph_conv_4/conv2d_9/kernel",
					"shape": [1, 1, 64, 128],
					"dtype": "float32"
				},
				{
					"name": "graph_conv_4/conv2d_9/bias",
					"shape": [128],
					"dtype": "float32"
				},
				{
					"name": "graph_conv_5/edge_importance",
					"shape": [33, 33],
					"dtype": "float32"
				},
				{
					"name": "graph_conv_5/conv2d_12/kernel",
					"shape": [1, 1, 128, 128],
					"dtype": "float32"
				},
				{
					"name": "graph_conv_5/conv2d_12/bias",
					"shape": [128],
					"dtype": "float32"
				},
				{
					"name": "graph_conv_6/edge_importance",
					"shape": [33, 33],
					"dtype": "float32"
				},
				{
					"name": "graph_conv_6/conv2d_14/kernel",
					"shape": [1, 1, 128, 128],
					"dtype": "float32"
				},
				{
					"name": "graph_conv_6/conv2d_14/bias",
					"shape": [128],
					"dtype": "float32"
				},
				{
					"name": "graph_conv_7/edge_importance",
					"shape": [33, 33],
					"dtype": "float32"
				},
				{
					"name": "graph_conv_7/conv2d_16/kernel",
					"shape": [1, 1, 128, 256],
					"dtype": "float32"
				},
				{
					"name": "graph_conv_7/conv2d_16/bias",
					"shape": [256],
					"dtype": "float32"
				},
				{
					"name": "graph_conv_8/edge_importance",
					"shape": [33, 33],
					"dtype": "float32"
				},
				{
					"name": "graph_conv_8/conv2d_19/kernel",
					"shape": [1, 1, 256, 256],
					"dtype": "float32"
				},
				{
					"name": "graph_conv_8/conv2d_19/bias",
					"shape": [256],
					"dtype": "float32"
				},
				{
					"name": "graph_conv_9/edge_importance",
					"shape": [33, 33],
					"dtype": "float32"
				},
				{
					"name": "graph_conv_9/conv2d_21/kernel",
					"shape": [1, 1, 256, 256],
					"dtype": "float32"
				},
				{
					"name": "graph_conv_9/conv2d_21/bias",
					"shape": [256],
					"dtype": "float32"
				}
			]
		}
	]
}
